model/Generation/6/w1.npy (npy, 5888 bytes, 1 tensors)

array f8 [80, 9]
00000000: f48f ddc5 2983 e4bf 8a77 3a8e de03 e5bf
00000010: 082f ea53 0b5d c23f a0e7 84db 6070 b8bf
00000020: 7061 510b 6703 e4bf 7a53 3622 05fc e23f
00000030: d6a3 c955 7f4c e03f 001b 5723 4a56 d03f
00000040: a602 924d 64a4 ea3f 6cc1 cdd4 dc28 e23f
00000050: eeec d579 8091 eebf 402d 0a0b dd2b cbbf
00000060: c45c fed3 4a09 debf d02c ea36 1410 df3f
00000070: 00e4 9b77 9f32 65bf 5095 fe1d eead d6bf
00000080: 80e8 4189 d72f 943f 4cbe 92d8 a441 dfbf
00000090: 62b6 fe77 9b6b e03f d4a9 f8c1 42e8 d23f
000000a0: 3093 a695 0be9 d7bf a064 2b45 119d ae3f
000000b0: 74b4 3a0f 797f e83f c0d3 7ed5 dacb e9bf
000000c0: 9826 9cde 0fa8 ee3f 2868 2ed9 47e7 e03f
000000d0: 4e1f 162d a2e2 e73f 4ce0 d3e8 5d09 d4bf
000000e0: e0f6 33bc 2cd6 ba3f c88f 7beb bb53 e0bf
000000f0: baa5 568d 78e0 eabf 8cc7 d90f 2ca8 ecbf
00000100: 40d7 6a32 6fc7 a83f cab9 046c a98d eebf
00000110: b8db 5e82 e3ff c33f 9482 8147 05d9 eb3f
00000120: 104d b5d0 ae33 cebf 10d5 bd99 b6e6 e0bf
00000130: 389c 6775 209f eabf 600d 6acb 320e ddbf
00000140: ee07 73bc 4667 ed3f 4c68 f794 8783 dd3f
00000150: 5024 bb98 c7ee c53f eeb9 d749 f045 e13f
00000160: 68a5 34ad 839e d5bf 8872 edb2 122a d73f
00000170: 304b e60e 9bd9 bd3f e460 0d80 78a6 e3bf
00000180: 0053 6d91 7060 a53f 98c2 84ca 980c ea3f
00000190: 40ae f7ae 1f19 a0bf 2ca5 e3cd 62dd efbf
000001a0: a8d1 eb93 5d2e ee3f 800c 1f21 bcda 833f
000001b0: 867f d143 6a3d e9bf 2c45 200b 5efd d5bf
000001c0: 901c abba e3fe ec3f f474 ea10 3a46 ef3f
000001d0: c008 b3c3 9ae6 96bf 24e4 ae97 7b69 e63f
000001e0: 54dd 2b09 eef1 d43f 72cb d641 e810 efbf
000001f0: 0006 7b74 4040 a6bf d8f9 047c 434a e9bf
00000200: 3089 c849 1d37 ea3f e415 381d 12d4 d83f
00000210: e089 17dd 96b0 efbf daba c867 5338 ec3f
00000220: f46f ce14 3643 d73f 64c1 f796 cf9b eabf
00000230: d054 bc27 db1d dc3f aaba b2f0 b8b6 e13f
00000240: ce2c 8338 af91 e6bf 78bd 6da6 3fbf ca3f
00000250: 60d4 0df2 f28b e7bf b61f a25d 9954 e0bf
00000260: b4b2 e19b abb2 d8bf ba6b 0fe3 507c e0bf
00000270: b87c 2142 1d66 c53f 8a5e 1eda ec7a e2bf
00000280: 48d0 6614 df3d e2bf d002 3fe9 11ef c33f
00000290: 30e2 5004 8b95 c9bf 6029 eea5 1a82 a7bf
000002a0: 7258 9d82 6126 e13f 9840 75b0 d866 d73f
000002b0: 2c0c b545 866b e6bf f82c bf6d cebe d9bf
000002c0: 006d d00f 2fcc dc3f f24e 0663 e389 e73f
000002d0: 80d2 16af 5bb5 bf3f 9c97 2570 5956 e3bf
000002e0: 7ab0 3221 87dc e0bf 2c85 7ace 31a0 e83f
000002f0: 9c4b 47c4 629f ea3f 58cc e7e7 75c4 d8bf
00000300: 0079 a235 9234 aa3f d8e5 6e5d c9c8 d5bf
00000310: b8bc 850c 5c6d d5bf 40db c346 c231 d33f
00000320: d882 1146 33c9 e33f ec92 c87b a842 ddbf
00000330: d835 a763 0fd3 d4bf 482a 5ff9 1812 ce3f
00000340: 4207 f39b 614a e5bf 7835 f5d1 422e d73f
00000350: 6265 632e 6c4a e6bf d41b ac94 b2aa d3bf
00000360: ec1e bf5f 6391 d6bf 285e 15a8 886c d33f
00000370: 6832 94a5 b94a ccbf 9c90 a92e 826e e73f
00000380: cc09 9301 e21e dfbf 4c5e 882f 7b47 efbf
00000390: 308c ce58 99c2 b1bf 1c76 2a00 1d75 d9bf
000003a0: 929d 5346 bbf5 e3bf f665 7231 37a7 e8bf
000003b0: 20c1 3e8a 7f92 c13f 0894 e226 ed45 dcbf
000003c0: fe6c 79df 2551 e2bf e29e 36c0 f07a eebf
000003d0: 8262 6023 37c6 e7bf c821 a9cf d988 d9bf
000003e0: 1c87 5784 5ab0 e13f 70c7 9721 fb7a ba3f
000003f0: a0a8 531f c4fa b53f 84a9 1d40 52c0 dcbf
00000400: 5ab4 c4f7 6cd4 ed3f 8064 5861 006d e2bf
00000410: 00c5 c8f0 53b5 9b3f 685a 8076 bf82 c73f
00000420: 1607 fb49 74c5 e23f 44c0 98d7 4bbf e93f
00000430: 88e7 b058 c17f e1bf 9058 47ee ed93 d33f
00000440: 9e55 cae9 37c3 ea3f 801c 5ab9 dca3 943f
00000450: d2e6 c1a3 ede0 e2bf 1861 a899 dc09 c03f
00000460: aafe 415d ddd8 e0bf f4af 3642 ebc9 ecbf
00000470: c889 32b6 06d0 c73f c0cd 70f2 7d8a b33f
00000480: 2037 464e 8e85 bb3f 34f5 c4f8 28f6 eebf
00000490: 40c1 2614 1e0d dc3f 20e4 b8d2 cf41 afbf
000004a0: 004b fd3b 19ab ddbf 14a2 f2e5 558a da3f
000004b0: 8073 03e3 eb13 8dbf 9054 e70e a2a4 cc3f
000004c0: 98db 6f72 186e d5bf 4043 fdd1 c349 ea3f
000004d0: e4ef 4013 92a2 e9bf fcd1 710b ec99 de3f
000004e0: 6467 e4f1 328e edbf 9a3d 841d 6296 e53f
000004f0: 289d a4cf 1012 de3f 702e 357d 091a ed3f
00000500: 8400 0b59 cc2f e7bf b0c9 ac7d d53d bc3f
00000510: d0ac 59b1 8039 b7bf c03d c0f3 ee0f d53f
00000520: 2473 252c e467 e8bf 76d6 0435 c5a8 eebf
00000530: b049 359f 97c1 b83f 78c0 0f23 1610 e4bf
00000540: f8c0 2f95 e62b c03f a829 a312 479e efbf
00000550: 40fb 6f28 807d 98bf c0ea 62ec 23bd a53f
00000560: 204b 29d7 e79a d9bf a47f 1f09 e73b e53f
00000570: 8c17 151f 06e4 ddbf 1cfd 5f64 da37 d4bf
00000580: 8053 e6c0 f018 b0bf 9cff 1240 7f87 d5bf
00000590: 8094 7947 6462 bcbf 58b0 8413 d5fa c73f
000005a0: 9a2c fff0 0495 e6bf e6c8 c84d 0abc ebbf
000005b0: 6439 0135 a462 dbbf 4039 46cf 3956 bf3f
000005c0: 9643 8245 a56f e8bf 60e5 9fe3 45e4 c73f
000005d0: e046 c4cd 6b6c bd3f 52a7 8814 c576 e53f
000005e0: 48cd c3b8 2976 e3bf 9c4a 4fa5 89c4 e1bf
000005f0: b003 45b8 e638 cfbf 80d7 f36b 8b18 933f
00000600: 644e 748e faea e73f d0eb 9abe e083 d63f
00000610: 3ee8 2009 9458 eabf a067 7984 5c8d b8bf
00000620: a073 561a d7f9 d93f f419 8a52 f3cf db3f
00000630: cabe 3f2e 1728 e1bf 6ad5 7cee b7f0 e93f
00000640: 0e3f 5cca 26a3 e23f 7ed0 0ded 5b73 e1bf
00000650: 0687 de75 caf6 e33f c4e7 994d 1f6a d23f
00000660: f4fa 32c9 6c4a d43f 749c bcf5 b463 edbf
00000670: 76a8 7dde 4de0 ecbf a849 de7e c6ac d0bf
00000680: bc65 0d75 e9f8 d23f 0c07 4401 6e0d d33f
00000690: 6ac3 c296 81c8 edbf c02f f7ab 41ae d3bf
000006a0: b011 6151 9334 c6bf dc1a b34d 904a e03f
000006b0: 1e82 fd2d c639 eebf 58f8 a5a2 13f7 d8bf
000006c0: 3c68 4d43 4db8 efbf 4c59 f89e e58b d63f
000006d0: 7063 5f68 7614 c13f 08ef 0da0 f9bb d1bf
000006e0: c6ba dcc0 b44f ebbf 1c70 bbf5 b414 dcbf
000006f0: 04cd 8267 087f d1bf e0c8 11a6 5428 a2bf
00000700: e8ec 7018 a0c7 dbbf bc99 e43c 74bd e4bf
00000710: 2642 cd0d 7496 e3bf 5615 eb4a 8f66 ef3f
00000720: 9469 a2de 31ca debf f0ee 665d 9315 da3f
00000730: 007d 82b3 6741 adbf 6cee 6c28 541a e03f
00000740: d474 fdf3 90c3 d6bf 4094 3c78 5d53 e93f
00000750: a235 fc26 45be ecbf d080 2e1b bf4a d03f
00000760: 4409 e848 19ad d8bf 32ab 86b2 6183 e1bf
00000770: 4cc9 273c afb4 dabf 64c3 e363 1d08 ef3f
00000780: 545c 827c eb13 ecbf 9a79 1d7f 371a e3bf
00000790: 7411 2b68 ef4f db3f 304b 2c83 0b5c e4bf
000007a0: 507a a5bd fab6 b03f 201b 006a 4060 e2bf
000007b0: 467f d7e3 b0d7 e9bf 60ea 7d7b eb85 a23f
000007c0: 2055 675b 929c e13f 3c5e 1da2 cd5a d23f
000007d0: 3c43 4bc6 986b e5bf f400 a02f 905e dbbf
000007e0: 9cdc a8af 25ad dc3f 1c54 403f d255 e93f
000007f0: 008d 8fc6 fe1f cebf 8092 2d2f b410 c3bf
-0.6410111298141588 -0.6567223337076353 0.1434644851436746 -0.0954647575316856 -0.6254153462460135 0.5932641666610003 0.5093380618610535 0.2552666993255315
0.8325673594518619 0.567488113052645 -0.955261457405326 -0.2122761062531513 -0.46931715681553166 0.4853563820149249 -0.002587615451258518 -0.3543658535875993
0.019713752510576388 -0.48838158750274796 0.5131356567050711 0.29542607252610975 -0.3735989533836799 0.05979207963327693 0.7655606553504541 -0.806134621604194
0.9580153797007425 0.5282325021573842 0.7464152222246214 -0.31307170617174473 0.10483054728316743 -0.5102214431067233 -0.839901233722393 -0.8955288228591924
0.048396563438855456 -0.9547927007422967 0.15624660363911658 0.8702417751884064 -0.23595223608808924 -0.5281632426037124 -0.8319246571599086 -0.45399160256075355
0.9188569718028228 0.46115293071273267 0.1713494773632953 0.53978743002318 -0.3377999488316932 0.3619429347361707 0.1166016494155826 -0.6140711308499047
0.041751401665043986 0.8140377002183241 -0.03144167910417339 -0.9957746526025963 0.9431598557553587 0.009694547425061595 -0.7887469601227941 -0.3435893162396322
0.9061144491069104 0.9773226099383963 -0.02236406154111914 0.7003763163148773 0.3272662248195577 -0.970813873855475 -0.04345895215875473 -0.7903153822188029
0.8192278328972744 0.3879437718718164 -0.9903063123895741 0.8818757082970834 0.36347724944948756 -0.8315198849286785 0.4393222702067989 0.553554983247371
-0.7052837470777378 0.2089614451065065 -0.7358336188905348 -0.5103270367408104 -0.3859051725656102 -0.5151752886553063 0.16717878083270477 -0.5775055179719442
-0.5700526617497497 0.15573333634349362 -0.19987619124164402 -0.04591449046627605 0.5359351683680542 0.3656522486899205 -0.7006255494565088 -0.40227089612444855
0.44996239227630497 0.7355820592951814 0.12386105560910643 -0.6042906942718562 -0.526919903602461 0.7695549996171045 0.8319562753261951 -0.3869910015775466
0.05118233589858967 -0.3403800404008428 -0.3347997782029313 0.2999120417656975 0.6183105820201389 -0.4571934899161494 -0.32538208705667904 0.23492729355196418
-0.6653297468076078 0.36219854835220344 -0.6965847879429641 -0.30729355353144894 -0.352623790266519 0.30349937834168594 -0.2210304316034979 0.7322398101209902
-0.48625993875262163 -0.9774757316944913 -0.06937559526572623 -0.3977730275745175 -0.6237465261046273 -0.7704120603331706 0.13728327036143018 -0.44176796719904177
-0.5724057545407104 -0.9525073770682548 -0.7429462138125731 -0.39897771148073646 0.5527775368502463 0.10343904085291711 0.08585763706983807 -0.44923836003604145
0.9321808661676514 -0.5758058453822201 0.02705889851694554 0.18367760931205912 0.5866033024724142 0.8046015940544824 -0.5468451244589554 0.3059038950863249
0.8363303724496978 0.020156334698665734 -0.5899570654284736 0.12530095579928324 -0.526472742218137 -0.8996483128771602 0.18603595634802006 0.07633196991883207
0.10750665102952128 -0.9675488337303819 0.438300628356064 -0.06104897925656183 -0.4635680280527339 0.41469333129728736 -0.014198153367425581 0.22377420165745265
-0.3348446958111082 0.8215045071939144 -0.8010950447128349 0.47814465634954195 -0.923608276792248 0.6746073318953905 0.4698526408924004 0.9094283528770131
-0.7245847453232419 0.11031851118312974 -0.09072117166367666 0.32909749797633125 -0.7626820432884398 -0.9581018481755581 0.09670398365896093 -0.6269636807246703
0.12633974346636712 -0.9880709995280101 -0.023916246860604007 0.04245865116668801 -0.4000796891388507 0.6635623148140337 -0.4670424750842066 -0.3159090023254565
-0.06288056096521011 -0.3363950849270567 -0.11087633843415468 0.18734229519884837 -0.7056908328026055 -0.8667041320061599 -0.42789559532402266 0.12240945158393846
-0.7636286122889142 0.18665383924944035 0.11493562482453568 0.6707482720423548 -0.60817419134984 -0.5552414158540446 -0.24392398831881001 0.018648317779443868
0.747433927756401 0.35179918874535776 -0.8233127764026518 -0.09590700372919381 0.4058740384296531 0.4345672899293327 -0.5361438659001234 0.810634580417781
0.5824159576750121 -0.54533191966631 0.6238758375295397 0.28772718981019474 0.31704253815034567 -0.9184212493463648 -0.9023808808826874 -0.2605453719089845
0.29644237929241135 0.29769468425375645 -0.9307258553072704 -0.3075107745505612 -0.1734794757231959 0.5091020124026175 -0.9445525072333714 -0.3900803650248057
-0.9912477793216179 0.3522886326258188 0.1334369668609514 -0.2770980895072488 -0.8534797446098643 -0.43876384732516427 -0.2733784685944587 -0.03546394850936152
-0.4340591658289683 -0.6481267155948482 -0.6121158856931899 0.9812694991348205 -0.48109099141734046 0.4075668727998467 -0.05713962618141899 0.5032139577446748
-0.3556864149775951 0.7914264057514018 -0.8982263337544973 0.2545621648259955 -0.38556511039509567 -0.5472877966725262 -0.417278107400439 0.9697405768366534
-0.8774316245861749 -0.596950290939094 0.42675385639838415 -0.6362359582875339 0.06529204492606167 -0.5742494650192818 -0.8075794649157408 0.036177977394761696
0.5503627572276493 0.28679219085231344 -0.6693843720368942 -0.4276466813171418 0.4480680671144428 0.7917262301804189 -0.23535141654347314 -0.1489472608910951
