model/Generation/6/w2.npy (npy, 560 bytes, 1 tensors)

array f8 [9, 6]
0	0x3fdf50dc81fcae48	0.4893103856472618
1	0x3f7af6b044c63400	0.006582916783725246
2	0x3fda611faea913e8	0.41217796379743143
3	0xbfec2954f636ef80	-0.8800453957442045
4	0x3fe36f5ff17aa350	0.6073455540073187
5	0x3fcbf3962716ee90	0.21837117108031068
6	0x3fd67924575bd16c	0.3511439183341938
7	0xbfdbb1a82e31f124	-0.43271832000006527
8	0xbfdb29d6dd3e40e0	-0.42442866903094334
9	0xbfcc2676cfb49c50	-0.21992383138533222
10	0xbfe8e030703303c0	-0.7773668471710309
11	0x3fe76edd688a4fb8	0.7322833101084063
12	0x3fb9efe67d4d9fc0	0.10131683882866493
13	0xbfea28ada5590ef0	-0.8174656133128035
14	0xbfcd49db3310dff0	-0.22881641381695728
15	0xbfac598122324ac0	-0.055370364593860355
16	0xbfe7901351f2c66c	-0.7363373375466842
17	0x3fe356f650436ef6	0.6043654983181728
18	0xbfd3c64011b0cb84	-0.30897523620222267
19	0xbfddf80ffbfc5fa0	-0.4682655297087823
20	0x3fe76bc2652f2240	0.7319042183162949
21	0x3fd9e0d3405d5ab4	0.4043472412644562
22	0xbfdb3fb23023c238	-0.42576269818440293
23	0x3fd72c6ec7de25a8	0.36208695906005994
24	0x3fd6b85be42c4538	0.3550023773433
25	0x3fc8adce4b9feb58	0.19280413334476054
26	0x3fe24b274cd0b594	0.5716740131662612
27	0x3fda17ded997ed20	0.4077069401680138
28	0x3fcaf1c47c931438	0.21050315935841168
29	0xbfb20b86a073b7a0	-0.07048837106023464
30	0xbfe5ca1cedaa3f7e	-0.6809219972510474
31	0xbfe47d9e9c38fc8a	-0.6403344203207706
32	0x3fddf7b98562ba30	0.468244915255954
33	0x3fdd1e3d72a396dc	0.4549707049867331
34	0x3fe9ad5f06f08eca	0.8024134765186883
35	0xbfd4e303e4317990	-0.3263559082460228
36	0xbfe1a6c3a8490476	-0.5516069685765064
37	0x3feadc37c71206f8	0.8393820655912512
38	0xbfd69b31d4457d9c	-0.35322232942231735
39	0xbfe0e26ca1bd1be6	-0.5276396902999039
40	0xbfd96f9b90e7fefc	-0.39743699217795814
41	0xbfed281a309529f6	-0.9111453007583907
42	0x3fdff4c7952ff344	0.49931516236374685
43	0xbfe0eb8af6a4e24a	-0.5287527863757273
44	0xbfb4bced50ec9170	-0.08100779748617071
45	0xbfe2d1fd898eb7fe	-0.5881335913343262
46	0x3fd9a5a101fec2e0	0.4007341880306239
47	0x3fe2741c2413df40	0.5766735748902434
48	0x3feed5641afde74c	0.9635487105544853
49	0x3fe00b7229e944cc	0.5013972109392397
50	0xbfdaf03b62fb6d84	-0.4209125963804683
51	0x3fd41329186d6f3c	0.3136694658803554
52	0xbfe5b235bb2066ee	-0.6780041365447838
53	0xbfd1e52c83c50e28	-0.27961266391887074
