model/Generation/8/w1.npy (npy, 5888 bytes, 1 tensors)

array f8 [80, 9]
0	0x3fde7a2f7274c194	0.47620760133124773
1	0xbfc819c1ba2078b8	-0.18828603351807316
2	0xbfb192570274b390	-0.06863921937902107
3	0x3feee138273451b2	0.9649925962171919
4	0x3fe2608e0c907ac0	0.5742864842794333
5	0xbfdd5b12257baa5c	-0.45868352566200143
6	0x3fefff98ba84c76a	0.9999507563536387
7	0x3fa6ebd799ad6300	0.044768083104548495
8	0x3fe5bf98064de5e6	0.6796379206782006
9	0x3fec9da1c3075514	0.8942421731141246
10	0x3fe073e0dd5e4c6a	0.5141453097916273
11	0x3fe054ea0d75b98e	0.5103655112159673
12	0xbfe9aebc51284d74	-0.8025800309282389
13	0x3fd4878e209f7418	0.32077363191439323
14	0x3fe8542896b2ae06	0.760273260433167
15	0xbfe919ac61d921c4	-0.7843839560601329
16	0xbfe964d74f0009f0	-0.7935596983882629
17	0x3feccf2dd06a3ab2	0.9002904005627299
18	0xbfeeadb54cfe486e	-0.9587046149993179
19	0x3fa0e4137b3ee1a0	0.03299008254493008
20	0x3fe971b92e9d9b1c	0.7951322470151783
21	0x3fee363a1617d6fe	0.9441194945818265
22	0x3fed2f5ec9364280	0.9120325021668378
23	0x3fb53812cfcbd430	0.08288686345243046
24	0xbfd66b7c838b5308	-0.35031044813267487
25	0x3fdb82f36fd34584	0.42986761017262887
26	0x3fe2fb1dbfbdfd38	0.5931538338626643
27	0xbfe9e81f9d7762a8	-0.8095853877558357
28	0x3fc8e7ad12cdd3b0	0.19457019251026741
29	0x3fee5ea10af96c0a	0.9490514005987063
30	0xbfe8f5fa6a04a7f4	-0.780026633326314
31	0xbfe9ccfeb59bdcfa	-0.8062737986610096
32	0xbfc84b5244059f90	-0.1897986251963144
33	0xbfebff5e5b5c6eb6	-0.8749229225536144
34	0x3fc027ccfbe0c098	0.12621462153174856
35	0xbfec15ae5e6ddac0	-0.877646622115968
36	0x3fea5b13358572f8	0.8236175580346687
37	0x3fb16850606252b0	0.06799795487524807
38	0xbfd05a4f4941e624	-0.2555120673565361
39	0x3fcd3fe404031e00	0.22851228900820786
40	0xbf9c0828337efb80	-0.02737486662203592
41	0x3fe86ac25952c7e6	0.7630321259114197
42	0xbfe58fe0ef366ece	-0.6738133117791791
43	0x3fb07d14160d4eb0	0.06440854586008515
44	0xbfd4a652e0132500	-0.32265159494689044
45	0xbfe755e00d1e33b0	-0.7292328125200722
46	0xbfe08b8a39576fa4	-0.5170336837722869
47	0xbfe90eb9852092aa	-0.7830474472180715
48	0x3fe9af2ce1e453d8	0.8026337062789208
49	0xbfc0c2d8c25f1f00	-0.13094624987410697
50	0xbfe03d78a6a97aee	-0.5075038199537099
51	0x3fe918cd62086582	0.784277621717749
52	0xbfd625390d33582c	-0.3460219029342422
53	0xbfeac733d1fa17ae	-0.836816701995067
54	0x3fef04e1b2fc1d3e	0.9693459029958047
55	0xbfd575e3a835c1ac	-0.3353203909564637
56	0xbfbf286d7439bc70	-0.12171062552964584
57	0xbfe29b02a79d8978	-0.5814221643197888
58	0xbfef3e7d573ec7ce	-0.9763781265266915
59	0xbfee19d05760ff48	-0.9406511026972817
60	0x3fd15965303ee494	0.2710812541150258
61	0x3fe047ea49d253e4	0.5087787095859508
62	0xbfe934e79c745948	-0.7877080970527368
63	0x3febf742b85ca3c8	0.8739331818406919
64	0x3feb8ab61d094954	0.86068254157207
65	0x3fc7d57cf8f13a00	0.1862026420153171
66	0xbfdc3ed85f112c18	-0.4413357666387028
67	0x3febd0f0824e3152	0.8692553086307646
68	0xbfedff37910dcaac	-0.9374044259150955
69	0x3fbb0a4e5916c530	0.1056260077955542
70	0xbfd4310ec0bb09b0	-0.31549424001073145
71	0x3fecdcdaed7728e0	0.9019598615643893
72	0x3fd71ab17c358070	0.3610042298296383
73	0xbfef6b63621556bc	-0.981858913010647
74	0x3fedf69348696c36	0.9363495268147577
75	0xbfe89cdbd34de92e	-0.7691477896726491
76	0x3fe3fed4c2f2de9a	0.6248573119728065
77	0xbfd29d709844b6d8	-0.29085936422312164
78	0xbfeeff92be922de2	-0.9686979028787699
79	0x3fc7557a28eb10d8	0.18229605672798388
80	0xbfe91fc1dc9c0f1e	-0.7851266201764451
81	0xbfe96eaf3a99e0f8	-0.7947612900307197
82	0xbfdd1d7a12599a14	-0.45492412368767643
83	0x3fe60297ababf73a	0.6878164627994245
84	0xbfe6afdfe05700b4	-0.708969057239321
85	0x3fc33372284196a0	0.15000750508913985
86	0x3fe562530ca753b2	0.6682524916783363
87	0x3fef8031b3ccc55a	0.9843986999241381
88	0x3fd3d87c6480c9dc	0.31008825125459594
89	0xbfb767d86d35af90	-0.09142830530407609
90	0xbfeb7d1058dc5490	-0.8590165839729185
91	0x3f8c90dc0679bd00	0.013948172519319346
92	0x3fc1d6d7ce3f1ae0	0.1393689877570159
93	0xbfd3c595072ced10	-0.3089344568322341
94	0xbfeb78b0859cf13a	-0.8584826097135541
95	0xbfed79b5e161eaea	-0.9211072351457379
96	0xbfe8995f00119e9a	-0.7687220574707283
97	0x3fe553c63b87515a	0.6664763605754545
98	0x3fe514d4877b4da6	0.6587927480817839
99	0xbfd8c4a745ba1944	-0.3870027714659907
100	0x3fdc144034a89234	0.4387360109560945
101	0xbfda4d4430a8590c	-0.41096596481055836
102	0xbfb97ac583854250	-0.09952959500265846
103	0x3feb3f5c937db2b0	0.8514845734294649
104	0x3fe5df7e16dbd3da	0.6835318037470828
105	0xbfb9fa2519ddc590	-0.10147315865994799
106	0x3fe0f7fbca713db8	0.5302714303924665
107	0xbfe0f53f3b81bbfc	-0.529937378143472
108	0x3febe95c4c979372	0.8722363944949463
109	0xbfe2bf9e849bcea6	-0.5858910169613025
110	0xbfa261a9d3135220	-0.03590136243443376
111	0xbfd8cbdf0996e26c	-0.3874433129927073
112	0xbfdc0025c61de168	-0.43750900599800113
113	0x3fe51ba323e3ecfa	0.659623689745245
114	0x3fc6a38e3aa89c50	0.17686632026854676
115	0xbfe43647cb5fb504	-0.6316260311265585
116	0x3f8c48eba7b45100	0.013810959868842065
117	0xbfdbee2a6ca75a00	-0.43641148195948176
118	0x3fef8c5f5085f830	0.9858852932663975
119	0x3fd3cf1f706ebb60	0.30951677303067093
120	0x3fb0910b00646c60	0.06471318015648952
121	0xbfeafffaf675e38e	-0.843747598045512
122	0x3fdae891106d8984	0.4204447422436248
123	0x3fc73402795461c0	0.18127470897958453
124	0xbfb889e5e83393e0	-0.09585415762883498
125	0x3fedadec1188bf26	0.9274807302917665
126	0x3fe1b8146cfe1cdc	0.5537206772577536
127	0xbfd3f4481666cdcc	-0.31178476512579034
128	0x3fc31b9542f677c0	0.1492792679754853
129	0x3fd3e7b4fdd46e58	0.31101727283541925
130	0xbfd4304ac787d570	-0.31544751630220613
131	0x3feb9096704a0f42	0.8613998597288417
132	0x3fd1fdd505310114	0.2811176825234878
133	0x3fdbc9ef1ce97e7c	0.4342000753731339
134	0xbfb060e6e5c04380	-0.06397860631137853
135	0xbfbc25663da93b70	-0.10994566922566462
136	0xbfb6e05122fc7f50	-0.08936030487211366
137	0xbfe2595ba2e954a4	-0.5734079534401144
138	0x3fef876ea1fd61b0	0.9852822460043651
139	0xbfe71e8825f3c42e	-0.7224770299200196
140	0xbfe826526278884c	-0.754677955938186
141	0xbfc3db1fb8550920	-0.15512463093370688
142	0x3fe2d8fb48914a66	0.5889870087942881
143	0xbfa6f8e231a147c0	-0.044867580946302166
144	0xbfeef9d0349afcec	-0.96799478792664
145	0xbfe6a614dad4f74a	-0.707773616224338
146	0x3fcaf1c465e77f80	0.21050314880175947
147	0x3fcc3b39c5601958	0.22055742394895606
148	0xbfe27f232a0f722a	-0.5780196973315175
149	0x3fe22e3ea7212b90	0.5681451095818932
150	0x3fecfeea7c67852c	0.9061176709912266
151	0x3fe3b35ca2929d04	0.6156447577713213
152	0xbfe6cc990281306e	-0.7124753045004704
153	0x3fe10254de88a654	0.5315346094477698
154	0xbfd867ac8caf22d4	-0.38132776011165714
155	0x3fb9779cf85b85c0	0.09948140204826128
156	0x3fded61de322d2c0	0.4818186491132046
157	0x3fe788516e8a238c	0.7353903922058733
158	0xbfca01db4a6bf898	-0.2031816590678701
159	0xbfe22837643fec54	-0.5674092252733183
160	0x3fdc3e8e4aa4eb34	0.4413181046435739
161	0x3fe186f585b9eeac	0.5477244960634002
162	0xbfdeb788cc1de424	-0.4799520486190565
163	0xbfe6a48d03f4f106	-0.707586772659426
164	0xbfe4d7a15b889fa8	-0.6513220584647472
165	0xbfeb7ea915f7da28	-0.8592114857736464
166	0x3fe035fb4c0bc95c	0.5065895543359988
167	0xbfde40a8f6b939b8	-0.47269653410048873
168	0xbfe5eb2783a5c3ac	-0.6849553652992788
169	0xbfcd55b59d1bae78	-0.2291781441812082
170	0xbfb09957e5eaa770	-0.06483983386229197
171	0xbf65528d73742c00	-0.0026028406824756267
172	0x3feac5c151acc772	0.8366400332654236
173	0xbfcb0ec4dc1a7818	-0.2113882136081322
174	0xbfe6e6354a1995f8	-0.7156015822662871
175	0xbfdff71113099590	-0.49945475443959086
176	0x3fe6716dab3198e4	0.701346239435932
177	0x3fece03aeabddcec	0.9023718437955757
178	0xbfe6a5e9f3e243a6	-0.7077531588894217
179	0xbfb8bbaf817638a0	-0.09661385451019777
180	0xbfd6d1d5ea7173b4	-0.35655734915581694
181	0xbfea663b69e210ac	-0.8249795024899149
182	0x3fd1b8801e3b5300	0.2768860144836225
183	0xbfe29170b2ae642c	-0.580253933893919
184	0xbfe98234d115b1ea	-0.7971443256079145
185	0xbfcb28b14de2b590	-0.2121793394375513
186	0xbfe47941238a2570	-0.6398015684255096
187	0x3fd087b34898595c	0.2582824906288772
188	0xbfe1283581ff4aea	-0.5361583270081074
189	0x3fe29d8b500ac9c8	0.5817314685175967
190	0xbfe781468b7e8932	-0.73453070874192
191	0x3fe100cd2343a980	0.5313478173023185
192	0x3fef1556c9d6ff5e	0.9713548605140934
193	0xbfd16a636583efd0	-0.27211842454539426
194	0xbfeb91435c69d1c8	-0.8614823155353912
195	0x3fc48370e5bb50e0	0.16026126115196515
196	0x3feeacadd5a7786c	0.9585789845402934
197	0xbfe719c084409ad8	-0.7218935568860969
198	0x3fe2cb275d84fcc4	0.5872990442802792
199	0xbfd3134e7aefdee4	-0.2980533791119184
200	0xbfcd9d2297779bc8	-0.23135788341389074
201	0xbfe81ac669d5bdd2	-0.7532684390152389
202	0x3fd3352b0b83e5e8	0.3001201260045421
203	0xbfd6732c0f1d3f58	-0.35077954746247064
204	0x3fcc1af3e8b4b0d8	0.21957253325070414
205	0xbfef83c7c1093c6a	-0.9848364610896969
206	0xbfdf399d7e6f3808	-0.48789155337442525
207	0x3fea4f40780aa0a8	0.8221742958603686
208	0x3fe6ac3afa770eda	0.7085242168327242
209	0xbfef00002684861c	-0.9687500717447537
210	0x3fe354044a177d22	0.6040059516052774
211	0xbfebe9a79f7897b8	-0.8722723116559257
212	0x3fd7ac2425f73dc4	0.3698816653022414
213	0x3fcdcfc97f731268	0.23290365908737276
214	0xbfbb4e2f09a0b330	-0.10666173920681099
215	0xbfd8d18b3f03f888	-0.3877895465265131
216	0xbfb1351bfcba3bd0	-0.06721663398842215
217	0x3fd34380c6fbcb6c	0.30099505836476825
218	0xbfe3025206cdff3e	-0.5940332539466693
219	0x3fbed3f2045e09e0	0.1204215298330733
220	0xbfc54693c943ae38	-0.1662163479553429
221	0x3fe569b6c1fee412	0.6691545285203822
222	0x3fd2ff68ee7627e8	0.2968389824605979
223	0x3fcf80d582ef6468	0.24611920255009356
224	0xbfd62b567d8ca9c8	-0.34639513264360433
225	0xbfa3af2b569b9fa0	-0.03844581062531849
226	0xbfd386834bfbe338	-0.30508501453691705
227	0xbfd0afce0c322208	-0.26073027792929837
228	0x3fdea9343b301108	0.4790773942952602
229	0xbfe333a3754e64a0	-0.6000535288941542
230	0x3fa6f326bf4bcfc0	0.04482384762914604
231	0x3fdf8ecfaac0939c	0.4930915038588013
232	0xbfd6a944644e9a68	-0.35408124728784296
233	0x3fd4a3c12d333764	0.3224947873503565
234	0x3feb62c4377338a4	0.855806453991836
235	0x3fd9cca3af53a274	0.40311519738910495
236	0xbfd22eee60b137cc	-0.2841144508610085
237	0x3fd6f28d8041e608	0.35855424428118043
238	0xbfcfb4cda2e18a00	-0.24770517781423962
239	0x3fc0dc25b1a5ced0	0.13171836065486398
240	0xbfe933f93fa9ef38	-0.7875944369729728
241	0x3fe6f49ef66abda2	0.717360955508344
242	0xbfee5e8954a50172	-0.9490400937284404
243	0x3fe37df2c8f3a614	0.6091245579565929
244	0x3fd7bb793ec524c4	0.3708174813260252
245	0x3fe5c027d84f715e	0.6797064995585449
246	0x3fc1471e0d212d28	0.13498283043950576
247	0xbfe0fc4d15cbc446	-0.5307984758093276
248	0x3fe907588ef1a5c6	0.7821467201112504
249	0xbfe7c765cce0b3c4	-0.7430905343550127
250	0xbfd543c2ba00040c	-0.3322607818991521
251	0xbfdce38065a4e1c0	-0.45138559271029166
252	0xbfecba4160f04d88	-0.8977362531026509
253	0x3fe152ff48a93de6	0.5413814944421886
254	0xbfd993ab8546f5f0	-0.3996380616698323
255	0x3fe400a7d33f77d2	0.6250800252853372
