model/Generation/8/w2.npy (npy, 560 bytes, 1 tensors)

array f8 [9, 6]
00000000: 1e97 9031 cb1b e43f c245 fb11 62f8 eb3f
00000010: 80b6 0698 90ed b03f 9c7c b3ea a350 debf
00000020: bc0b 9465 37e6 ecbf ac26 950f 9627 d6bf
00000030: d011 1876 b94f e23f 0071 993b 5460 d9bf
00000040: 3821 6d73 ef29 d7bf d4e4 e522 00c2 d0bf
00000050: e05d 31ee 7c2a b1bf b006 b7fb 2633 c1bf
00000060: bc6b 1beb b807 e3bf 1c9b 8237 5aac e1bf
00000070: c4eb 57c1 9f1a ec3f 609a 555c 8922 bdbf
00000080: ca28 04b7 1038 e43f 38d8 8916 a2a9 e03f
00000090: 1817 e5fa d305 d33f 982c 2bca fb12 d1bf
000000a0: 1eab 022e ede6 eebf 7437 202a 8f9f e5bf
000000b0: e8dd 7374 ae9e df3f e050 1c84 0db4 a13f
000000c0: 4064 1f79 7279 91bf d0b7 62bf d80f b63f
000000d0: 22af 5335 0d59 e53f 7031 1123 ab26 b13f
000000e0: dcea 414d 2e94 d93f 16f1 6f2d ef7a e0bf
000000f0: 50bb 902e 0a37 c63f 5057 72c4 75f1 e83f
00000100: 5087 d611 bf42 d63f fca5 edfd a55d d5bf
00000110: 5aba c840 30f9 e4bf fcc3 48fc bf80 d63f
00000120: 207b d96b c306 c0bf 663a d76f bcd2 e83f
00000130: 18c9 6131 5315 de3f 003c a3c4 cfb0 79bf
00000140: c00b 9d60 3349 9c3f 1881 96db bb47 d5bf
00000150: c084 d5ca ab56 973f 5429 84a9 d384 ee3f
00000160: 18d1 ef27 fac5 c93f fea5 37c1 3b6f ec3f
00000170: 1837 cf41 cfd0 e4bf 6091 7a88 3015 be3f
00000180: 3e7d 9ce7 8e5c e8bf 5e10 137b c990 eb3f
00000190: 7cdf 1fd7 c76c d9bf ce9c 2688 d2c8 e9bf
000001a0: 62c3 0d1b 4076 ee3f f0bf c38d c97c d03f
0.6283927887022605 0.8740702010347194 0.06612495147302333 -0.473671893310845 -0.9031025871230365 -0.34616614839306226 0.5722319895290244 -0.396504457666893
-0.3619345309457631 -0.2618408528138165 -0.06705456557516909 -0.13437354365128362 -0.5946926681457323 -0.5522891124900045 0.8782500053633773 -0.11380823616273394
0.6318439077888567 0.5207071724132737 0.2972307157655094 -0.26678366416008137 -0.9656892679825864 -0.675727445866626 0.49406014797520337 0.03457681882551511
-0.017064846651781318 0.08617930099964544 0.6671205560246316 0.06699628454334117 0.3996692423312831 -0.5150066268393256 0.17355468057345513 0.7794751011703998
0.34782387487404254 -0.3338408450859729 -0.6554185166658713 0.3516082729066168 -0.1252064015015657 0.7757246193303444 0.47005157301386324 -0.006272136301233466
0.027622988483255062 -0.3325032848752172 0.0227915613699039 0.9537142096390121 0.20135428381002707 0.8885782979752432 -0.6504894528713718 0.11751082736970409
-0.7612986110361033 0.8614241985128606 -0.397264442522548 -0.805764451903906 0.9519348648446846 0.2576164135380159
