model/Generation/7/w1.npy (npy, 5888 bytes, 1 tensors)

array f8 [80, 9]
000000 24 61 c5 71 a5 69 e2 3f 30 97 fd 21 ca 53 e7 bf
       0.5753962728586299 -0.7289782203558612
000010 40 81 46 38 51 88 d5 3f 74 60 35 b1 43 ac df bf
       0.3364451455654667 -0.49488918595807907
000020 fc 23 22 90 22 c8 d6 3f 74 b3 cd b5 bd 08 e3 bf
       0.35596527171634285 -0.5948170233583441
000030 ec cf d0 81 83 b2 d6 bf b4 38 f9 22 6f e9 db 3f
       -0.35464561154662877 0.43612268844016033
000040 b2 f3 cd 7e 61 bf e6 3f d6 07 c1 bf 05 9d e6 3f
       0.710861919083632 0.706667780417997
000050 0c 5c b1 ea c4 7a d7 3f 40 73 1f e3 6a 89 b5 bf
       0.3668682376787167 -0.08412807507506859
000060 b8 41 9c 53 08 ab cf 3f 78 ea f9 c3 ed 36 ca bf
       0.24740699846780756 -0.20480129307891892
000070 00 3e c6 48 ea 12 6a 3f 68 17 ba 5e c3 bf c3 3f
       0.0031828475823159064 0.15428964734399675
000080 f0 33 a4 f7 0b e8 cd 3f 9e 07 bd 7c 69 7e e1 bf
       0.23364400474420632 -0.5466811596199823
000090 30 b0 eb 19 aa d0 b2 bf 18 3e 68 58 0a 83 da 3f
       -0.0734964669497351 0.4142480719901598
0000a0 90 ff ea cd f6 90 d1 3f a4 f6 06 75 1d 0a e1 3f
       0.2744729052465056 0.532484749382736
0000b0 60 78 43 c7 ab 8f d6 3f a8 8d 69 eb 30 97 e4 bf
       0.3525189824994239 -0.6434559438607055
0000c0 00 80 c9 23 ef 6b 0f 3f f2 51 5e c8 cd b6 ef bf
       5.9931979625060805e-05 -0.9910649217077305
0000d0 20 8f e0 8f e8 07 a0 bf b2 17 50 05 a5 31 e8 bf
       -0.031310336650021364 -0.7560601333395793
0000e0 32 91 ef 48 87 29 e4 3f 2a 5a e9 8e d5 8b e1 3f
       0.6300693916823887 0.5483196059456692
0000f0 84 e3 fd de f4 81 d4 3f a0 42 63 b5 71 5d ba 3f
       0.3204319169668042 0.1029883449402953
000100 00 f7 6c ad dd a1 75 bf c0 74 b0 01 fd af ab 3f
       -0.005281320502772635 0.05407705922719108
000110 a8 b0 a3 5d 30 84 c6 3f 8c ab 79 b3 94 34 e9 3f
       0.17590908596264865 0.7876685624481623
000120 46 cb 82 39 06 4d e3 3f 82 16 3e 1c 96 bd e5 3f
       0.6031523822078746 0.6793928672420437
000130 de c4 53 51 ae a3 e7 3f da b2 30 1a e7 87 e4 bf
       0.7387305820867842 -0.641589690354148
000140 00 cd 73 c1 f5 d9 af 3f 40 20 40 33 fb 56 c4 bf
       0.062209777703083446 -0.15890445711579737
000150 a0 c5 14 d0 c0 4e e7 3f ca ec 08 ba 32 95 ed 3f
       0.728363424690702 0.9244626649373455
000160 40 a7 cf 7a 76 af b3 bf 80 56 03 c1 98 0a cc 3f
       -0.07689610002821912 0.21907338547196176
000170 30 67 58 f6 0b 05 e6 bf a0 69 c0 fe 26 99 c9 3f
       -0.688116055625164 0.19998633803409138
000180 38 31 b0 10 84 a8 e2 bf a0 c1 15 75 14 dd d6 bf
       -0.5830707860891726 -0.3572436469467224
000190 40 8d 03 76 21 0a d9 3f 88 09 ce e2 1d 54 e5 bf
       0.3912433292845954 -0.6665181569845098
0001a0 9e b6 95 c7 3f fc e9 bf ac a7 18 10 77 6c dd 3f
       -0.8120421312466595 0.45974518367676853
0001b0 d0 02 00 58 da c3 bf bf e8 c9 9b 6f 80 0d d1 bf
       -0.12408222816885517 -0.26644907855293676
0001c0 24 da 54 89 3e 8d e3 3f 54 af b1 a9 f9 67 d5 3f
       0.6109917337660744 0.3344711453598752
0001d0 f8 c7 7e 48 f3 51 ec 3f 3e e8 f6 47 55 58 e6 bf
       0.8850037017748482 -0.6982828527027392
0001e0 f4 df 17 8e 50 de ed bf 16 d3 d1 62 33 23 ee 3f
       -0.9333880210169796 0.9417969636984675
0001f0 22 f5 8c 15 46 b5 e6 3f 68 d3 79 82 ab 45 c7 bf
       0.7096281453047235 -0.18181365843670538
000200 ee 6a 56 18 cf 99 e3 3f 3c 9a 7c 64 c7 15 ec bf
       0.6125255084365031 -0.8776585543280997
000210 f8 a7 1a f4 cc d6 e2 bf a0 89 64 b0 1a 81 e4 3f
       -0.5887207763346387 0.6407597966356668
000220 80 b3 51 5d 05 dc bc bf 14 08 8a 50 34 23 e5 3f
       -0.11273225334453052 0.6605474064856502
000230 60 c2 3a 3f 2e 2e e5 bf 40 dd f2 38 25 c6 a4 bf
       -0.6618872866584518 -0.040574229432815745
000240 38 98 45 cb 7d b3 cd bf 8e 4a 31 81 eb 9b ee bf
       -0.23204014230140202 -0.9565331958095429
000250 40 c9 32 da 56 89 90 3f 18 fa 12 be cd 98 ee bf
       0.016148907726070805 -0.9561527931580853
000260 30 46 5c 65 0a 33 b8 3f d8 15 b5 82 14 b0 e1 3f
       0.09452881788845313 0.5527441552046026
000270 e2 5d 73 7d e5 da e1 bf 28 72 7d 11 35 d0 da bf
       -0.5579707575042756 -0.41895796497354576
000280 4c 8b 22 01 5c da dd 3f 50 e9 b4 3b 45 3b d1 3f
       0.4664525996287707 0.26924258070689167
000290 7a a0 6f c6 13 0a e4 3f 9c 1a b6 82 7d d1 d2 bf
       0.6262301326469377 -0.2940362717130627
0002a0 46 f1 81 7d 8c db e0 3f c4 eb e2 12 1a d1 d9 3f
       0.526800389415748 0.4033875641286466
0002b0 1c 87 70 f7 2e 31 db bf 20 39 24 c7 d5 30 e6 bf
       -0.42487692035693825 -0.69346131224464
0002c0 60 e0 1c 03 c0 5b c3 bf 90 9f c1 ae 0f 99 d3 3f
       -0.1512374892424786 0.30621711793946194
0002d0 30 ef 49 a1 c0 32 dc 3f 50 7f 0c f9 96 cc cf 3f
       0.4405976843915935 0.24843108330332564
0002e0 dc 7c 7a bc 85 f0 e2 bf 2a fa f2 31 f7 db e0 bf
       -0.5918606454105446 -0.5268512702530803
0002f0 9c d1 ea 62 93 6e e1 bf 30 d1 96 a3 00 e3 d6 3f
       -0.544748013685012 0.3576051328229992
000300 fc ab 8e fe f5 fa ec bf 90 71 d7 85 5f f0 b8 bf
       -0.9056348773787017 -0.09741780297867408
000310 68 fd 41 37 f5 35 c3 3f d0 07 e5 73 74 c4 b7 3f
       0.15008416364797061 0.09284141377887001
000320 7e 5a 29 c6 50 c4 e4 bf 00 b1 12 15 6c 24 9c 3f
       -0.648964297327282 0.02748268965358225
000330 70 6f f3 38 2a 08 d8 3f 68 b2 c2 8c e8 4c cf 3f
       0.3754983478699989 0.2445345580394076
000340 62 91 2b da bf 85 e5 3f 24 c7 6a 7b 0e 7a da 3f
       0.6725768338333575 0.4136997418637398
000350 d8 7c 01 96 fa c1 de 3f 00 f0 55 46 27 de b1 bf
       0.4805895295048237 -0.069796042129326
000360 00 2c ff 6f b1 e8 62 3f 00 70 ac f1 2d 17 98 3f
       0.002308222348778255 0.023525922656617126
000370 00 7b 9f 74 ca 63 84 bf 2c 29 8e ce 79 93 e5 3f
       -0.00995596092610418 0.6742524179728995
000380 f8 5d 6d ff 8a b0 d4 bf 40 97 6c 54 2d b8 b8 3f
       -0.3232753271490476 0.09656031905305174
000390 1a c0 fc 2e 32 f3 ea 3f 8c 0b c0 55 e4 d6 ea bf
       0.8421870153160882 -0.83873192546922
0003a0 80 b1 5c 33 0d 5d ae 3f 20 59 53 51 fd 58 e2 3f
       0.05930367710093076 0.57336297878172
0003b0 40 39 d7 a3 c3 6c ae bf 12 08 2d d3 f3 13 e6 3f
       -0.059423555135810435 0.6899356007127173
0003c0 f0 ca 13 26 e1 d6 d7 bf 7c 06 8a f2 75 d3 e4 3f
       -0.3724902030800612 0.6508130776494023
0003d0 78 6b 17 d7 a5 8d d0 3f 60 fb b8 94 6f 59 ef 3f
       0.25864549641635604 0.9796674637544633
0003e0 c4 b7 25 5c 1b 98 eb 3f 72 bd 07 79 7e 94 e2 3f
       0.8623177337410586 0.5806267131683127
0003f0 6a d3 77 c8 3d c8 e2 bf b8 45 51 1f 80 d3 c4 bf
       -0.5869435229675279 -0.16270448235677093
000400 14 58 32 86 31 89 e0 3f 00 fd e5 86 0f a4 bc 3f
       0.5167472477940032 0.111878366884401
000410 e0 4a f1 0d 2c 23 b0 3f d0 67 78 b5 38 e1 be bf
       0.06303668346781022 -0.1206241076510246
000420 e8 3c d6 d5 b2 d1 c2 3f d8 bf 10 73 f2 14 e6 bf
       0.14702449265721573 -0.6900570151683452
000430 1e 0a 2e 97 ed fe ea bf ca e2 93 5e 44 c4 e4 bf
       -0.8436191513758933 -0.6489583823414133
000440 10 5d a4 26 42 2a ee 3f 96 3f 0f fa 14 9f e7 3f
       0.9426584963538591 0.738169182202898
000450 54 ed 7e 49 ae 37 df 3f e4 cb 86 a2 6f 58 ef 3f
       0.4877734868748196 0.979545419153848
000460 e0 b7 a3 c2 1a 91 eb 3f 30 e8 c7 6f 94 cd cb 3f
       0.8614629556229794 0.2172112985425101
000470 54 d5 d6 ff c2 7f d9 bf b4 aa 4a 8f e1 9e ea bf
       -0.39842295631691127 -0.8318946646371246
000480 10 a7 a1 ab 5d 5b eb 3f c8 cc 3d 9e e4 82 e8 bf
       0.8549030639817108 -0.7659781542446575
000490 d8 e5 19 f7 d6 0a c0 bf 1e 25 c5 59 b8 fd ea 3f
       -0.1253308016346597 0.8434716943094462
0004a0 20 05 66 e1 f5 ea ba bf bc 0a bd a5 3e 8a d8 bf
       -0.10514771225827646 -0.38343778787035965
0004b0 bc 5b 4b fd e5 14 ed bf b8 f0 ff 8f 44 8f ec 3f
       -0.9088010737567553 0.892488747834725
0004c0 50 60 b2 c7 77 9d c9 3f c8 a3 b1 62 a1 a2 d7 3f
       0.20011803866214217 0.3693011726195974
0004d0 bc 3b 19 80 24 73 df 3f e4 5a d4 27 d9 3b e5 3f
       0.49140274533868555 0.6635556962890772
0004e0 50 78 8f c1 5f 0b b7 bf e8 8c 1d 37 0e 0e c8 bf
       -0.09001730418774057 -0.1879289406889264
0004f0 d0 eb 83 63 38 87 c6 3f ba a3 32 8a 78 01 e5 bf
       0.17600159510752045 -0.6564295481849662
000500 e8 3b 40 82 73 52 d8 3f 68 c2 25 54 56 9b de 3f
       0.38003242225471334 0.4782310315850169
000510 70 0d 99 e5 76 71 b5 3f 0e e5 e4 4e 0b c2 e5 3f
       0.08376257996956382 0.6799370327854903
000520 98 4e 3f 14 c1 6d c8 bf 28 45 a3 55 5c c7 ee bf
       -0.19084943283688882 -0.961836020718839
000530 a0 ae 41 67 fb 92 ce bf 12 76 df 77 91 e2 e0 bf
       -0.23886053602051494 -0.5276572552936065
000540 d6 17 fc 00 86 cc e7 bf 10 f4 e6 37 e4 0a d2 3f
       -0.743716241763418 0.2819147630614802
000550 f4 6d 97 66 31 18 d8 3f 00 83 75 a2 f7 bd a9 3f
       0.3764766218061759 0.05027746065275629
000560 10 74 65 55 f4 aa c2 3f 5e 8a 9f 95 9e e6 ef 3f
       0.14584211511365242 0.9969017908409332
000570 1e 17 68 6c 11 58 e5 bf cc 1b 09 84 f8 cd db bf
       -0.6670004956547222 -0.43444645780658386
000580 66 b1 ae b3 97 a5 ec bf 10 62 6c b1 db 65 cb bf
       -0.895213938657929 -0.2140459648442321
000590 98 28 f6 66 ab b0 d0 3f 10 d1 11 ea cb 0d e9 3f
       0.26078305296744864 0.7829341479942133
0005a0 64 97 e0 86 03 ea e5 3f 28 98 00 8f 03 af ec 3f
       0.6848161348650419 0.8963640015615555
0005b0 4c a6 86 d1 33 2a d1 3f f8 0c 67 65 c8 d6 cf bf
       0.26820083104630466 -0.24874215079589823
0005c0 d6 2b fd 14 31 8c e8 bf 28 ba 50 c2 c5 7a e1 bf
       -0.7671132478657181 -0.5462368769856925
0005d0 f8 46 9c d4 dd 93 c3 3f 96 f6 8f f8 d7 88 e8 3f
       0.15295002824182524 0.766704545472481
0005e0 e6 fe 16 e1 28 00 e1 3f d2 6c 59 2c 42 6a eb bf
       0.5312694927488024 -0.8567210069844811
0005f0 70 4d 11 08 eb ab c7 bf 70 61 a9 84 1a 05 dd 3f
       -0.18493402379918278 0.4534364982150896
000600 50 50 01 78 46 c5 c7 3f c0 cd d1 2f db 14 d3 3f
       0.18570786342263768 0.2981479613292457
000610 e0 01 7c 85 c8 3b b8 bf 20 1d 17 e1 b9 42 d6 3f
       -0.09466222056290219 0.3478226373813005
000620 28 ba f5 a3 a1 24 cc bf e0 79 7a 32 14 20 ce bf
       -0.21986790185788263 -0.23535397019163806
000630 a6 ad 7c 8a 51 bf e5 bf 2e ef e0 3f 41 40 e9 3f
       -0.6796043114494992 0.78909361339854
000640 ce 04 57 7d f2 46 ec bf e6 55 72 9b bb 17 e0 3f
       -0.8836605499310737 0.5028970752779827
000650 00 47 fe fb 86 5d e1 3f e6 83 24 8e 59 02 e2 3f
       0.5426669046157429 0.5627868438933745
000660 38 e4 23 42 25 5b c5 bf 30 ad 2b 88 51 6b bb 3f
       -0.16684404115201956 0.1071063001106054
000670 74 f4 8c c5 de 08 ed 3f f6 f0 73 de e6 7b e4 bf
       0.9073327883157973 -0.6401247353346935
000680 30 97 9d a6 9c 93 d3 bf 20 23 5c 28 85 c0 bb bf
       -0.3058845164399484 -0.10840637431477917
000690 24 c7 f7 c4 0d 8e ea bf 9e 28 de 48 de 8b e3 3f
       -0.8298405501393273 0.6108237670134888
0006a0 d8 5f 8d 78 59 6d d3 3f e0 60 e6 1a 48 45 a7 3f
       0.303549163557816 0.04545045212143051
0006b0 82 d5 b4 ab 91 2b e9 3f 48 de 8e f0 7c a7 d0 bf
       0.7865684846535006 -0.2602226590347283
0006c0 64 6e 35 00 87 5d d6 bf a0 38 2c d3 b0 ea ca bf
       -0.34945845623381033 -0.21028719245118044
0006d0 4c e6 81 38 b7 ba dc bf c0 26 c9 ac d2 f8 be bf
       -0.44889622228911175 -0.12098423689271964
0006e0 44 30 a8 e9 54 8d dd 3f 84 c5 ce 2a e6 53 dd 3f
       0.46175120180192075 0.458245794109722
0006f0 04 53 27 b7 e8 41 db bf 7a f1 c8 0f ef 51 e6 bf
       -0.4258977688416936 -0.6975016887950425
000700 5a a9 e0 cd 26 43 ee 3f 56 85 2c 2c 84 f7 ee 3f
       0.9456972142263951 0.9677143919727011
000710 e0 18 b7 47 92 93 e4 bf a0 4e 1b ce 08 1f ac bf
       -0.6430140877426105 -0.05492427364302199
000720 70 aa 28 92 f4 55 ca 3f 98 53 b4 8d a5 a0 d6 bf
       0.20574814926779394 -0.3535550960380589
000730 ba 56 eb c6 fa b4 ed bf 4e 72 43 83 b1 06 e8 3f
       -0.9283422360556053 0.7508170665492544
000740 f8 26 d8 48 fc 7e c0 bf 42 a3 dd f0 17 29 ee bf
       -0.12887528950550808 -0.9425162987146012
000750 52 c5 c3 d1 5d 65 ea bf 92 b5 d7 84 46 92 e4 bf
       -0.824873838135469 -0.6428558916647253
000760 bc 73 fc e1 12 f2 dc bf 00 a6 01 08 37 8b d8 3f
       -0.45227500981291846 0.38349700719717816
000770 f0 2e 34 ee 83 9b b4 bf 0c b6 f7 64 d0 3c d1 3f
       -0.08049797597430675 0.2693367944728784
000780 6c 4b 56 e2 cd 2b d2 bf 3a d4 2d c5 90 02 ee bf
       -0.28392359832030567 -0.9378131724503256
000790 e8 a4 11 fb dd 6f e0 3f 00 51 5a 25 4f e8 74 3f
       0.5136556533517735 0.005104359782894585
0007a0 3c f9 aa 76 0a f4 d1 3f 60 f2 72 2a 72 e5 ce 3f
       0.28052007282885305 0.24137713501649483
0007b0 b6 25 7c a1 00 0d e2 bf 2e ae 06 b2 ca dd ef bf
       -0.5640872148516596 -0.9958241917678998
0007c0 88 2b 93 48 52 11 dd bf 7c 49 16 e4 4c b1 d8 3f
       -0.4541822155703632 0.38582155489088854
0007d0 f0 5d 60 fd d3 a1 b9 bf 60 f5 a1 0b 20 5d ee 3f
       -0.10012555061290818 0.9488678195190623
0007e0 58 33 cd 05 ef f5 df 3f b8 56 9b 12 78 bd da 3f
       0.49938560072478344 0.4178142720896676
0007f0 48 56 bc 27 b5 f5 ce 3f 88 5d fc 82 b9 a4 d4 bf
       0.24187340202540697 -0.3225539950521683
