model/Generation/7/w2.npy (npy, 560 bytes, 1 tensors)

array f8 [9, 6]
00000000: 62d1 9095 4ee9 e8bf 6867 5468 28d6 d63f
00000010: 40a4 76c0 ad18 a0bf 2e50 7d86 49ab e63f
00000020: 7eb0 d74a 83fd e7bf f054 717f bd72 d2bf
00000030: 3e15 a55d 5daa e2bf 303c b60a 903e d33f
00000040: a4b2 3995 6c3f d33f 00df bd9c dc5f 8dbf
00000050: e868 40c0 c185 d83f 7c4e 6020 4b41 dfbf
00000060: 6ca6 25d6 2ab1 d33f e814 d368 6191 c73f
00000070: a695 0559 71c1 ee3f 804d 0362 5300 e9bf
00000080: b02b 1a03 5276 c53f 5cfb f3a8 1b38 e53f
00000090: 2aeb 344a 427f e13f b661 3a13 c23f ed3f
000000a0: 8095 40fa 05c0 cf3f 32c4 71c9 ea84 e5bf
000000b0: 48a4 5bee a600 da3f 0a02 58a7 57af e63f
000000c0: d4a1 e81f 8b83 ef3f 3cf9 bd6b e217 e73f
000000d0: 8003 2b45 d0c7 c63f f2af 3dc3 bfd5 e5bf
000000e0: 96ea 203d 6931 e2bf a66e df8e ccb6 efbf
000000f0: 8e9b e718 b93d e9bf 9c9e bc37 0e1b d6bf
00000100: b426 4d98 61c3 d9bf 7475 8497 7dd6 efbf
00000110: 38a5 aa0a 14c7 de3f 9a3d b19e bf77 e2bf
00000120: e0e4 2c24 ae9c dcbf fae3 1f76 a57b e1bf
00000130: 5aa0 1386 84d7 e5bf 941c 36ef 7b99 de3f
00000140: 9cb9 495e 6cfd d8bf 46bb 26fa 7bf9 eebf
00000150: 3c4e 9288 4b04 d33f c89b 726c 31d5 cb3f
00000160: ae80 0779 b373 e63f e0bd 1923 05bf ee3f
00000170: 2077 d511 c5bd e7bf 2a01 a5f2 4505 e33f
00000180: c8cf aa5e cbcd cb3f 0052 0bbb 8b0f 8c3f
00000190: ae20 ba7d 8a54 e03f 7e95 75c5 e35d ef3f
000001a0: 4080 5d87 b81f 913f aa1a e204 127a ecbf
-0.778479854698656 0.35682115734527153 -0.031438283676216816 0.7084090830562724 -0.7496963941353127 -0.2882531876142158 -0.5832964734078485 0.30069352193908383
0.30074610302726 -0.014342998059631906 0.3831638696152724 -0.4883601967023663 0.30768843567657345 0.18412416094194062 0.9611136187274283 -0.781289760047386
0.16767335082508117 0.6630991268028583 0.546784539160716 0.9140329719112319 0.24804758757924716 -0.6724752363644539 0.40628979947229427 0.7089041012223458
0.9848075507371115 0.7216655830705245 0.1779728257879718 -0.682342416124355 -0.5685316270749634 -0.991064337776568 -0.7887845503254185 -0.345401338987793
-0.40255012391262857 -0.9949329337429575 0.4809007743993621 -0.5771177386722457 -0.44706300289869993 -0.5463435465927653 -0.6825583094296335 0.4781179271744318
-0.3904677315503251 -0.9679546247260553 0.29713714921055945 0.2174436358957037 0.7016236652234704 0.9608178792531668 -0.7419152592007983 0.5943937052871082
0.2172178470842694 0.013701526303898426 0.5103199439627326 0.9802111488940424 0.016722567808187927 -0.8899011702895525
