model/Generation/1/w1.npy (npy, 5888 bytes, 1 tensors)

array f8 [80, 9]
00000000: 68b3 24fb 4e1f db3f 58e0 ca22 a816 cb3f
00000010: 7421 1484 a63e d4bf c860 d063 d31c dbbf
00000020: 844f d81f 4da1 d33f c00c d352 2567 ecbf
00000030: d015 c0a9 5361 e23f c00d 33d6 b6e9 e83f
00000040: 7003 fa7d 7d4e dc3f a07e 0ee6 0c1e c6bf
00000050: f0ff 409f 1d1f e9bf 50b0 5620 6f98 e83f
00000060: 463f 983c f5a7 e83f 2408 90d4 38d2 d73f
00000070: 90ce 9499 10d6 d5bf 1a5a 95f2 22ca e13f
00000080: d090 46f0 f9ca cf3f ae1c 9e2e 4f90 e1bf
00000090: f007 ded8 64ac c83f c41d 32b3 c969 eebf
000000a0: 34dc 065b f879 dcbf c04d f12d ffc2 b93f
000000b0: d025 7253 1d7f d03f c81a 246a 4f2a c63f
000000c0: d2ee 4ae0 fd3d e6bf 7883 94fd b5ca c9bf
000000d0: c03d a6f1 c83a c8bf 2efd 1802 1a8f eebf
000000e0: 0091 aa00 a7ee af3f c0da 3391 bbab 943f
000000f0: e4a4 d65e f35f d03f aa58 3ede cc03 e1bf
00000100: 80e6 5d89 f411 c7bf e68b dac5 af0f ee3f
00000110: 2069 c077 81c4 edbf a8fb af1e e20a ce3f
00000120: bc1c 842a 83d6 df3f 3600 e220 46a2 e5bf
00000130: 44e6 6822 fb5b db3f 5c89 6590 3066 ecbf
00000140: e0e4 bd1a 52e7 b33f 8ae8 a6ac ae9b ef3f
00000150: 8e8e a7bb 8800 e73f eec8 2307 43fc e3bf
00000160: a02e 2ddb e499 d73f 0003 8d66 01fd e9bf
00000170: b0b0 54a2 08c8 d4bf 1e3d 0e1c e5ef ed3f
00000180: a20a 474b 2daf ed3f 6476 72c1 f68d e9bf
00000190: 0827 2911 b4f3 e8bf c4fb 06da bb82 ed3f
000001a0: 10f3 2ef4 228b de3f 9a20 cbf9 66e4 e63f
000001b0: 263e 91c8 f646 eb3f b0c2 0964 1a55 c83f
000001c0: fc50 02da 3642 dfbf 8022 3c57 be30 a7bf
000001d0: 4c9e 52fc c019 e93f 7005 c671 de08 e03f
000001e0: c0ba 78b9 fbf2 acbf 2aad fb95 a55b edbf
000001f0: ac90 7ecd ca06 ed3f d0aa d19b 8fa1 d9bf
00000200: 801a 6355 c0ae 873f 4222 b2cc 1863 eabf
00000210: 08a5 0fb1 e662 eebf 383f d2da 2085 cb3f
00000220: 0094 6ecf 9a80 843f 6c51 33cd bbfc e23f
00000230: 007e f25a 61ea 85bf 40be 0639 f70b 933f
00000240: 82a6 11ef b8e6 e73f 2875 f1bf ef6e c8bf
00000250: 0c68 175e 2922 e43f 8679 a15b b992 e4bf
00000260: 9c04 4c4b bf13 dcbf 8870 aabb 6c7e ef3f
00000270: 92b2 08dd 9a83 e33f 18e2 b33e 0984 efbf
00000280: 64d7 9c4e 13d8 d13f b4fe 2ac4 de75 ea3f
00000290: d8a3 1548 7334 dc3f f253 4279 0e93 e33f
000002a0: 9c71 926c cd2c ed3f fe99 a722 aa3b e23f
000002b0: 8e05 d0b8 d364 e5bf b02e e654 2a56 be3f
000002c0: 2839 c8b1 639e c63f 4eaa c2a3 1c21 eabf
000002d0: 56cb 3e3b bd31 e53f 6c71 2408 2334 e73f
000002e0: a8a5 dcb2 0ae5 c53f 420f 9d58 27b3 e2bf
000002f0: 4882 034c ac4a d5bf 20d5 4b8f 8511 dfbf
00000300: c48a db93 87eb d13f f408 f833 aec8 ebbf
00000310: 0cca e545 018d eabf f05f 45ab d431 b0bf
00000320: 302c 4f08 7a35 eb3f f88d 0bbc f568 e83f
00000330: c0b6 ef88 87c1 ec3f 2289 5505 9b3d e4bf
00000340: 10c3 6c71 a96e ccbf 0002 4c77 f038 d8bf
00000350: 0067 aec3 b37f 903f 6433 a981 93f6 e0bf
00000360: 4015 1cff cf93 a13f d85b b033 7a8a c33f
00000370: e47c 6769 7114 e73f 98af 365a 3175 d6bf
00000380: 10d7 2df9 ea7b bdbf 2edd 7b78 a104 e5bf
00000390: 48fa 38c8 a3e5 cf3f a43d 0d3f c620 e33f
000003a0: 54a3 764a 561f dbbf b05f 510a 5356 dfbf
000003b0: 5a73 5957 70bc eb3f 5846 9203 2c26 e8bf
000003c0: 945d e046 a14d e3bf 505e 7180 aaad bd3f
000003d0: 1016 a492 54dd c93f b09d 315e dea7 ebbf
000003e0: 74f3 1839 00e8 e2bf a076 900a d15c c23f
000003f0: 7ced 048b 5199 d43f d07d 1060 0f90 ca3f
00000400: 680e 1928 d22a c9bf 9ec5 fbe0 f2da ee3f
00000410: 7ed2 6e45 be7e ecbf 40c5 558c a115 90bf
00000420: 64b3 2450 2855 e1bf 0ca2 e6c1 d79b ddbf
00000430: 4035 37f5 b305 99bf ccc4 72ee ccd3 de3f
00000440: 50c6 b6ed 4128 d2bf 7020 b253 c8c4 d1bf
00000450: 40b0 7906 5f4e cbbf 96bd c51c 2182 e6bf
00000460: 0076 a93d 2852 c13f a830 c267 a653 d33f
00000470: 70ad a7eb 765d bd3f 4895 c325 3fca e33f
00000480: 3cac c5c7 96de ea3f 3400 ca30 a453 dcbf
00000490: 72e5 65d5 fc6d ee3f 94e1 b951 3cad de3f
000004a0: d415 828b 7411 eabf 080c 3acc 9a2b ea3f
000004b0: 70a0 8e97 662d d8bf 5413 f0a2 8b7c d8bf
000004c0: dc55 45f3 84d4 d3bf 7637 7374 05b1 e63f
000004d0: 24a4 817d bd8a e23f 4cd8 b170 e2a7 ef3f
000004e0: 403c 9ef6 abcd a73f 7095 76f3 512a eb3f
000004f0: 50f9 eb76 47e0 debf e09d f866 22ea cbbf
00000500: 003a d4e7 f159 89bf 0453 f97f 03ee d83f
00000510: 002e 1e51 d923 c7bf 4828 2fec ab8f cebf
00000520: 7e5b ff55 58b9 e0bf 8cff 98e6 6abb e6bf
00000530: 1abe 86dd ffef ecbf 7880 ab93 0e38 ebbf
00000540: d857 97ee e81f e6bf c0d9 2b39 697b a1bf
00000550: ca5e 145d 7ce1 e0bf a081 f08d 2abe c9bf
00000560: 20f5 633d 50f5 e83f 509c 1892 6b6b d23f
00000570: 6c24 b0cb 63bd d3bf c01a 5cb5 99da d63f
00000580: 285d 1683 7998 e6bf d4e6 4090 8248 d4bf
00000590: 4ef9 0c1b 08f8 e0bf 820f d51e 1d4d e9bf
000005a0: c89a ca4e 80ab d03f 0865 f056 5b0b efbf
000005b0: aac0 d0cd 1977 eabf 30e7 5daa 6af9 d03f
000005c0: 40e8 6946 9115 e73f a0d1 6812 6438 d33f
000005d0: d0d3 c24f 896d e33f 3077 fd6e 407e b0bf
000005e0: b0cb 5ac2 ed47 b9bf 2877 676c 81d9 e3bf
000005f0: 2811 94eb 5738 c63f b843 76b6 0c42 c93f
00000600: e08a a61a 0ee6 cdbf 6863 9854 0bad dabf
00000610: 1c4e e1b5 8d1f dc3f b0d0 8662 1d01 c03f
00000620: 1014 cb20 9855 b8bf 70fb 16cd 2fce b23f
00000630: 162e b967 1677 e93f 5809 04b7 e0da c0bf
00000640: b681 190d f727 e0bf 307a 7c65 9231 debf
00000650: 2047 c4a5 1502 dcbf 8ce2 99f5 7cf8 e6bf
00000660: 0620 8c2e 61ce e9bf 00d0 9c55 d80d d3bf
00000670: 2ec3 c3b7 874b edbf 30cc 7413 0462 d4bf
00000680: e842 cfbe 31a5 ed3f 5862 f575 cf9d d0bf
00000690: 5875 ae46 314a ce3f 90ce 2421 c474 d7bf
000006a0: 10c5 5d86 763b c73f 548b 40ad 979c d0bf
000006b0: acf1 ca80 e9ea ef3f 8002 54a6 20a2 a63f
000006c0: 00e7 9c0b f109 9abf d87f ab11 7f99 df3f
000006d0: 3e84 748a 74f5 edbf 2405 00fb afb2 eb3f
000006e0: 18a8 b06d b2d9 df3f a4ec 5eec 0177 d53f
000006f0: 902e 6147 34b5 d7bf 006b 2fd0 1ff1 8dbf
00000700: 5001 3169 84ed e9bf 64b1 9f16 5b36 dcbf
00000710: 80f7 8b34 3387 b03f 509a 4c21 45ac ebbf
00000720: 2ee3 9cd4 3881 e2bf 061a ccfe 6d70 e9bf
00000730: 5e97 2464 ab07 eabf 54ee 18a2 e9e7 e0bf
00000740: 9ac7 df0b 618f e93f bc4e 2b3f b98b ef3f
00000750: 2a7f d88c 0191 e6bf 403a fe55 1f2c a7bf
00000760: 907b 3ef7 8a50 dd3f c024 7c99 922d ab3f
00000770: a065 f189 061b af3f 5804 5173 cb8c e53f
00000780: 1e58 a8c4 5363 ea3f 4818 0471 1cf1 dcbf
00000790: bcd1 8167 f84a d33f 680d 0424 a678 e53f
000007a0: ac66 d7fc 316a eebf 606f 9ab9 1eeb e03f
000007b0: 3093 3014 fbd7 d33f b06b 2f5d ccca ba3f
000007c0: f829 16a1 0d93 ca3f f008 b47f e1c7 cf3f
000007d0: 9c0d 194b 555b ebbf 164d c424 8692 e7bf
000007e0: b262 4cf0 2ef5 e73f dc61 ac9b 0c68 d93f
000007f0: d8b0 f9f0 6be0 c83f 1a09 511c e548 ef3f
0.4237859203884029 0.21162893008090822 -0.3163238801794457 -0.42363438365420025 0.30672004804477404 -0.8875910394348452 0.5743807139812649 0.7785295661528195
0.4422906618347531 -0.17279206498368627 -0.7850483045986021 0.7686076766599488 0.7705026801577126 0.37220593221730014 -0.34119048116847583 0.5559248674351835
0.2483818457814153 -0.5488658819675913 0.19276104535316518 -0.9504135608594244 -0.4449444664891786 0.10063166495938614 0.25775845669758457 0.17316620524089488
-0.6950673466412474 -0.20149874574510895 -0.1892939739159214 -0.9549684563607224 0.062367647963840867 0.020186358201466303 0.2558563638836644 -0.5317138996786259
-0.18023544986117557 0.9394148697214149 -0.9302375162981527 0.23470713137063837 0.497467795867532 -0.6760588304750914 0.4274890743286941 -0.887474329018271
0.07774842408061344 0.9877541896924111 0.7188151993872951 -0.6245436801384849 0.3687679424663006 -0.8121344569154587 -0.324709089780991 0.9355340526543932
0.9276339025749005 -0.7985795763267558 -0.7797489485903677 0.9222087152810379 0.4772422203639488 0.7153811339167249 0.852412597401728 0.1900971401660363
-0.48841639795251957 -0.045293758534232786 0.7843937805345802 0.5010826322688171 -0.056541315451217766 -0.9174373559339177 0.9070791257440951 -0.40048589913082555
0.011563780408676338 -0.8245967863050014 -0.949572892973408 0.21500025448448823 0.010010919051476108 0.5933512695142276 -0.010700951183308938 0.018600333076106645
0.7469143552127238 -0.1908855139944674 0.6291701162074346 -0.6429106511748592 -0.4387052760431034 0.98418270734284 0.6098150555677242 -0.9848676895772455
0.27881319691674933 0.8268884498028997 0.44070131339554797 0.611701237520377 0.9117190475986265 0.5697832753037912 -0.6685579881306454 0.11850227902157928
0.17670866184966738 -0.8165419767804651 0.6623216778883527 0.7251143607168564 0.17105230077258438 -0.584369347642202 -0.3326826803513865 -0.4854444407822758
0.2800005859300365 -0.8682471289651219 -0.8297125210941103 -0.06326035672589092 0.8502779161730185 0.7628124878651183 0.8986241983927457 -0.6325202087576012
-0.2221271327812464 -0.37847530031288557 0.016112145250736454 -0.5300996334495776 0.03433084477550574 0.15266349338409557 0.7212454851795909 -0.3509028798096039
-0.11517208655808653 -0.6568152764511177 0.249195549740721 0.597750781200308 -0.4237876631910258 -0.48964382178882726 0.8667527872126854 -0.7546596593621855
-0.6032263168626053 0.11593118320285467 0.20206696663096624 -0.8642417754862688 -0.5908204188523158 0.14345753684840634 0.32185782028292187 0.20752136412282463
-0.19661929090408425 0.9642271417816806 -0.8904715877639118 -0.015707515898104818 -0.5416451993274731 -0.4626368897975517 -0.024435817567611595 0.4816772774311857
-0.2837071248460221 -0.2776356522886152 -0.2133291989915751 -0.7033849298440369 0.1353197384914182 0.3019805920855654 0.11470740559859904 0.6184383142068919
0.839671507053374 -0.44260506405408084 0.9509262245111769 0.4793234632593564 -0.8146307682770222 0.8178228367618212 -0.37777104187490007 -0.3826016513051418
-0.3098461509410677 0.7091090464034397 0.5794360591218077 0.9892437172955026 0.04649102578616082 0.848916030420396 -0.482438913473648 -0.21808271434677717
-0.012378587615356373 0.3895272016282407 -0.18078152142366832 -0.2387595084422307 -0.5226251296652291 -0.7103781226978625 -0.9042968107878011 -0.8505928882768918
-0.6913952503189149 -0.03414467642680874 -0.5275251214943293 -0.20111591272963114 0.779945487883797 0.2878064085693426 -0.30843443766986556 0.35709231100956274
-0.7061126289653759 -0.31692566001184486 -0.5302773025830818 -0.7906632997696621 0.2604676026771071 -0.9701363275554806 -0.8270386714775857 0.26522318494208985
0.7213827491061764 0.30031682775304525 0.6071211393196965 -0.06442644796103703 -0.0987537955759723 -0.6203009717243946 0.17359446528292577 0.19732817563320082
-0.2335832243089362 -0.4168117834211018 0.43942587625244456 0.12503402052755552 -0.09505606461159766 0.07345865971636356 0.7957870508047928 -0.1316796201354673
-0.5048785453655487 -0.4717756262852246 -0.43762723148494054 -0.7178330227753391 -0.8064428242805668 -0.29772003517723533 -0.9154699887422788 -0.31848241710685254
0.9264153219938551 -0.2596319820345676 0.23663917495006603 -0.36650183903405154 0.18150216637472072 -0.25955764693406036 0.9974257960780526 0.04420568495152555
-0.025428549131198075 0.4937436745221908 -0.9362127975656518 0.8655624296517641 0.49766216957016374 0.3353886421497896 -0.3704348275248117 -0.014620064297493851
-0.8102438025016827 -0.4408176155982544 0.06456298859481358 -0.8647790575385645 -0.5782741692156372 -0.794974324847147 -0.8134362178723042 -0.5283096471752722
0.7987523300091539 0.9858061059735159 -0.7052009344952002 -0.045258502242280674 0.45804094452790256 0.053082066760973046 0.0607530635249518 0.6734368564867834
0.8246249047249454 -0.45221625363081275 0.30145082576862214 0.670977659552972 -0.9504632890995786 0.5287011742652616 0.3100574204602706 0.10465695643453787
0.2076127087169224 0.248287379603489 -0.8548990694766192 -0.7366362302877032 0.748679608662391 0.3969756622550713 0.1943488051068758 0.9776483109529039
