model/Generation/1/w2.npy (npy, 560 bytes, 1 tensors)

array f8 [9, 6]
0	0x3fb87e7f2ed7e970	0.09568018811834178
1	0xbfd13c20afecf638	-0.2692949026130438
2	0x3fe8486bd3be7726	0.7588404784798726
3	0xbfe005734a721f9e	-0.5006653265017922
4	0x3fda603d1c68773c	0.4121239449904015
5	0x3fc29e97ad26c2c8	0.14546485857638047
6	0xbfea30a8ab5180ac	-0.8184398027479083
7	0x3fd3b331e0144078	0.3078121841690584
8	0xbfdcbeee5bddf9f8	-0.44915350886722605
9	0x3fce1d7b52144ab0	0.23527471072937578
10	0xbfae9f2bbd5cb840	-0.059808127274991296
11	0xbfeb445f2f805106	-0.8520961692579767
12	0xbfe1822a579e8da2	-0.5471393309893993
13	0xbfea8eb4ebb3c45c	-0.8299202540930639
14	0xbfe656de2b0d8cea	-0.698103984916455
15	0x3fec840aa33aa9aa	0.891118353659569
16	0x3fd6fd4d52258628	0.35921032926680363
17	0xbfc8d7b97fb5b778	-0.1940833924849661
18	0x3fed8e5e780391c0	0.9236290306112593
19	0x3fe143820c6ae498	0.5394907228975567
20	0x3fe26ab2ac4b8c18	0.5755246510638043
21	0xbfc603fd2c7b50c0	-0.17199673339803745
22	0xbfef14b74e3bffb6	-0.971278813172822
23	0xbfd7d903176f7c5c	-0.3726203659879894
24	0x3fc51dfd335e4ed8	0.16497769363615222
25	0x3fccc9fa54e4acd8	0.22491387505701854
26	0x3fe27b4bb57ad980	0.5775507492569858
27	0x3fe9c9fab6552412	0.8059056817229495
28	0xbfe6dad6fcd14aa4	-0.7142138421862296
29	0xbfc28798dc8f9738	-0.14476309556555989
30	0xbfdb97b623a80680	-0.4311347339827094
31	0xbfe67144a58c19b8	-0.7013266785950725
32	0x3fe59fe58e211158	0.6757686401329392
33	0xbfef48e3f64c889c	-0.9776477633024743
34	0xbfc5ebfc565aa908	-0.1712642118121226
35	0x3fed6782b3cc5958	0.9188855659183828
36	0x3feeaf94fd086800	0.9589333478973003
37	0x3fdfea66275b33cc	0.4986815819109409
38	0x3fcae167604724a8	0.21000377846784102
39	0xbfefcd894d95d468	-0.993839885267005
40	0x3fe2e397556848b4	0.5902821224319923
41	0xbfe2c4f2fdffe184	-0.5865416489532866
42	0xbfe945f3820f4b3c	-0.7897889652470904
43	0x3fe742121b71c21a	0.7268152748129666
44	0xbfdcb474be7dac64	-0.4485141620886621
45	0x3f89adbd7fe5b700	0.012538414445511403
46	0xbfbd9d8978855ff0	-0.1156850737801276
47	0xbfed0f4c34a9c52a	-0.9081173924043118
48	0x3fe6ce2e1b9dc756	0.7126684703236872
49	0x3fbb971e33326ca0	0.10777462720800424
50	0xbfe142f9f667908a	-0.539425832041631
51	0xbfe73ff559e90468	-0.7265574222621014
52	0x3fe60a09df47e896	0.6887254105524956
53	0xbfde728315aabf74	-0.4757392608253135
