model/Generation/5/w1.npy (npy, 5888 bytes, 1 tensors)

array f8 [80, 9]
00000000: b025 88f9 e50d c83f f87f 64c6 a333 ee3f
00000010: 9eda 1caa 9d3f ebbf 32ff e061 99ec e03f
00000020: 980f e1f2 4f8d c63f 7411 4ed4 cb1b d03f
00000030: 1009 f051 de41 c63f e0ff cd84 6c9b cbbf
00000040: c00a ee13 928e efbf 82c6 df0e 481d e9bf
00000050: e819 976f 9c58 e7bf 52c5 1378 1dfb e03f
00000060: 0a25 8d3b 5924 eabf a0b1 d976 1bd7 b7bf
00000070: 3488 8565 0e8f ec3f d0f4 13f4 deea ba3f
00000080: c874 824e 4f0b edbf 1ac9 d2d0 d0da e43f
00000090: 3625 3f57 9cdc e0bf 308b f654 fb5f b9bf
000000a0: 981d 5404 a1bf e6bf c29c 050e bebb e6bf
000000b0: 4819 00db fd78 e63f 92aa 7383 315d e0bf
000000c0: acc8 1856 3e9c dc3f 3021 ed9b 2c98 b23f
000000d0: 506b dc5c 9ded e33f 88d4 1f00 cd85 c73f
000000e0: a0b0 8866 fe2e ae3f e066 ec08 0aa4 dc3f
000000f0: 38f2 d676 eccc e2bf 88b5 28da 8a6f dabf
00000100: 1c78 1143 7441 d6bf be4a 10d7 e73a e43f
00000110: 8aa9 9379 0c35 e93f b0f9 be1d 5e42 cbbf
00000120: 4a64 5812 1132 e5bf d092 8d28 d8a8 d83f
00000130: 5269 c314 8924 ef3f b674 c024 52c3 e73f
00000140: 22ff 7e95 a2d7 edbf 48f1 9158 3c59 c53f
00000150: cce4 9c48 8bc4 eabf f875 95ea fa00 eebf
00000160: d601 9dc5 b3c4 ec3f c01b e03d 32a8 abbf
00000170: 50ce 3e61 bc19 bc3f 18f3 e255 6b15 ccbf
00000180: c818 56f0 7a8f cbbf 9032 43c6 e1cd cf3f
00000190: 605e ad29 9515 abbf 60fb abb0 64bb eebf
000001a0: e0d1 c760 1d36 a3bf d080 3a21 38ac c03f
000001b0: a4d2 9b15 c91b dc3f 9618 7c50 94d7 ee3f
000001c0: 5469 9d58 a240 ea3f 4449 ed89 6b05 debf
000001d0: 88e1 9486 df72 d5bf 70e8 410d bc26 e7bf
000001e0: 5e74 0c9c 6260 ed3f 82eb 467a ba7a eabf
000001f0: 722c 806a 5524 ee3f 2058 070c fe2f a0bf
00000200: 8a82 907c 9174 e53f 063f 7ecf dfc8 ecbf
00000210: 3c63 1869 470f e0bf 5c97 4d92 4fdb dd3f
00000220: 70ec 56ca 042e da3f 684b 16d3 e537 e6bf
00000230: e055 ebe6 8d36 b43f 6000 7874 0419 dd3f
00000240: 8ced aa5a 055c ea3f 2afc 32ac ba38 e4bf
00000250: 7cb0 4e19 c693 d93f e0d9 22f6 fe5f d4bf
00000260: 0046 2365 074b 80bf a0de b4f2 54ac c23f
00000270: 00d7 77a0 b662 9d3f f8f3 2c3e 3003 cbbf
00000280: a41f 026c 1318 e93f 6c86 dd24 b2b6 d83f
00000290: b036 a9e0 b4b0 bbbf c01d 9e41 103d d43f
000002a0: 4abc fae3 f9a9 e7bf e8c5 ec19 4c7e e03f
000002b0: ec17 5a7d 5716 edbf 5eff f36c 6d11 e8bf
000002c0: 980d 07ee d852 d03f 006c 0ed1 52e9 c63f
000002d0: 8e78 e648 fc48 e6bf d848 0323 efad e43f
000002e0: 742d 3a1b d045 ec3f 1053 5f0e 18bc bf3f
000002f0: d4d2 4ab3 0832 dabf 94fe 7f64 3003 e03f
00000300: 30bb 6cc6 46fc cc3f d09d d2be ef24 cebf
00000310: 40e0 059b 50f1 ac3f ca26 6627 b347 e83f
00000320: 4c94 2a76 6e1f d83f 9ebe e4a2 048b e6bf
00000330: 3e64 b549 87eb e03f c0ea bb7e 6d7b 963f
00000340: e43e 21c3 1756 e33f 88aa 061d c0f1 cabf
00000350: debc 358c ae32 ea3f 2436 8bd9 6ea4 dd3f
00000360: 4050 5c91 a60e dc3f a6c1 882b c68f eabf
00000370: ccb3 9e78 2570 d0bf 00b1 ab35 da3f a43f
00000380: 243a 37ce 1ece dd3f 907b fd5b 9daf e1bf
00000390: f0d7 4465 3222 b6bf fc47 4c39 4e87 dd3f
000003a0: c0d5 1975 b81d a53f d446 6163 f5c2 db3f
000003b0: a2c8 716b 19e4 e33f 00a2 8d1a b44f 623f
000003c0: 8071 586e 10d7 a8bf 6025 d7ea 318f af3f
000003d0: 8a4a 3bdb ac44 ed3f 58a3 7b0a 784f c6bf
000003e0: 3efb 8a49 d91e edbf 3c28 fab2 c7ed da3f
000003f0: dc82 6646 67dd d83f cac0 7522 1e5b ec3f
00000400: d2b2 3639 42e9 e13f 30a0 5cd1 99b6 e4bf
00000410: 2aab c369 d86e e2bf 0e93 cb39 b799 e2bf
00000420: 0473 5a99 2c85 ed3f 7e39 b6e5 6c0a e73f
00000430: 0041 9b43 2a0f 90bf 009f 8d7c 94d9 7e3f
00000440: 7217 9eda c089 eb3f 284a fa53 f10b ccbf
00000450: 90e3 7e39 08b6 bbbf f6cc caf8 b904 eb3f
00000460: 0c66 8f9c bdf1 ebbf 88cd b4d3 938c ed3f
00000470: 4c43 2ae8 0f55 e63f aaa9 151d 43a7 eb3f
00000480: a619 c6f2 919f e23f 6844 79ef f88f e8bf
00000490: 9e9f 5353 16d3 e8bf c054 3326 a5a0 ddbf
000004a0: 7079 303a 9e84 b0bf 3605 ccba 32e2 efbf
000004b0: 88f4 b4f3 1be8 e8bf 20d4 67dc 1768 bb3f
000004c0: 665c 9e72 a7ab ebbf 8c97 c904 d962 d5bf
000004d0: 68da 329e 568f c4bf 784e ce0b 65cc c73f
000004e0: ce2f 60e2 ad9e e0bf b05f bc87 e52a ddbf
000004f0: 6442 b661 31fa e5bf 6064 ab3e fcf1 ec3f
00000500: c4a1 7f73 5cb5 ec3f 2444 e603 7ff5 e13f
00000510: 641d 3e29 d142 d33f cc22 324b ee1a d0bf
00000520: 0064 e0ae 4c1d 9bbf 588d b6c2 208f c13f
00000530: 52dc 3478 187c ec3f 2aff 5e35 2023 e33f
00000540: 0ab5 ba97 b6e2 ef3f aec5 dbd2 ff37 e8bf
00000550: dc7e 5813 55d6 e0bf e676 e15d 14eb e73f
00000560: 2685 5492 36c0 e5bf 8886 1686 1a20 d83f
00000570: 5828 7343 38b5 dfbf 2052 d18b 60e7 dbbf
00000580: c0e3 0506 f316 e83f f421 a8d9 f27f df3f
00000590: 307b 6465 6422 dcbf 1014 7b5e 59f2 bebf
000005a0: dc08 28b6 a01e ef3f 4e2a a097 c825 e53f
000005b0: c0ad bd0c 0162 ef3f 186f 0e4f e8b1 e73f
000005c0: 9e98 99ce 21e1 edbf a02f 22aa ac88 bbbf
000005d0: cca7 90e7 9a7c dcbf 2cdd 5afb 6357 d9bf
000005e0: 9a7e ab0c 1d26 ea3f 04f0 6150 6c5f de3f
000005f0: a2dd 3c31 10c2 ecbf f058 8bc8 9a76 b7bf
00000600: c869 d373 e196 c6bf 1e07 01cb 2184 e0bf
00000610: ca1d 1856 2775 e5bf 8c96 3675 c12e e73f
00000620: 347f 182a bc7e d83f 4eab d414 3255 ec3f
00000630: 301a 3f9e ec9d bebf aeca 4816 89aa e2bf
00000640: a44e 2ee1 193a ed3f 1c1f f57b 6fbc d63f
00000650: a8c8 18a0 f28d c4bf a033 91e0 3aa5 e3bf
00000660: 1cc9 614f 8898 efbf 88a7 e190 157e c63f
00000670: 7c2b 83f1 7055 d3bf 02f5 e50e 10a2 eb3f
00000680: d074 9b6d 153c d23f 4e46 b7ae 10ab e4bf
00000690: c8c9 14a8 abc2 c73f bc4a 576d 9dc6 df3f
000006a0: da95 f5da cfca e6bf 3016 5c00 0536 c9bf
000006b0: 6aab 6851 7540 e53f 641e 1d58 10a8 e23f
000006c0: b69a d2a7 faed edbf 66ae 1bb5 a3d4 ee3f
000006d0: 70b3 348d 7711 d03f 2030 ef40 6344 b03f
000006e0: e845 7b38 d87b cb3f 40b5 cedb 9bb4 a23f
000006f0: d8ab bbf2 bf36 c73f 5006 e9fb b451 bcbf
00000700: c841 9085 45c4 e63f a284 cfae 64f0 e43f
00000710: fa92 9412 91ab ea3f 7a30 40b7 84b7 ef3f
00000720: 5c39 b094 2648 e93f 7052 5ea7 726c edbf
00000730: e082 53c9 c18c a1bf 9861 de28 fee6 e33f
00000740: 7cbe af2c d4b2 e5bf ba56 295e 4389 e53f
00000750: 8075 0096 8e44 c1bf d0f4 6214 78b0 b7bf
00000760: 00a7 9eb2 7661 76bf c078 344b b9af 94bf
00000770: d82d b928 cf20 d6bf 6a53 0b75 2e99 efbf
00000780: c080 23ba e40a dd3f 3a5e 8860 a65e e5bf
00000790: 7a17 61a3 08b1 e5bf 409e 7b9f 821d e9bf
000007a0: 46cc f624 93b7 e83f 1435 2430 af8e d5bf
000007b0: b693 fb8e 6e17 e5bf 208c de4d f920 b93f
000007c0: 7c1a 14c8 db54 e6bf c041 b2b4 683c d03f
000007d0: 4824 692a 4609 e2bf 108c bf32 ef70 e03f
000007e0: 8c7a c1f8 3fc8 ec3f 888b 1e06 5731 d6bf
000007f0: d226 4458 520e e53f 00a7 39da fcf5 81bf
0.187924143640243 0.9438036799292595 -0.8515156099809535 0.5288817321488521 0.17618750914891446 0.2516965459147038 0.1738851451955914 -0.21568066105464734
-0.9861536397223389 -0.7848243990431032 -0.7295667819496972 0.5306537003763572 -0.8169370806801066 -0.09312602664585379 0.8924629195064484 0.10514634570059234
-0.9076305898085133 0.651710899217764 -0.5269300178562506 -0.09912081550878038 -0.7108922085325728 -0.7104177736154258 0.7022694852210316 -0.5113761489313495
0.4470363465108089 0.07263449484628803 0.6227557004634523 0.1837707758528817 0.05895228387484619 0.44751215812139655 -0.5875150986754027 -0.41305800728408615
-0.3477450041735908 0.6321906280957916 0.7877256750628459 -0.21296287968102723 -0.6623616560274368 0.38530544243103027 0.9732098966153819 0.742592880039999
-0.9325726432652781 0.1667857582541592 -0.8364921968669932 -0.9376196462359863 0.8990115031847903 -0.05401761060061672 0.10976769804147435 -0.21940366452863524
-0.21531616912051832 0.24847051792894037 -0.05289903768305915 -0.9603751612301998 -0.037522237838775174 0.13025571463095398 0.4391958914778036 0.9638158390014435
0.820389912677721 -0.46908081502364873 -0.3351363004944905 -0.7234783419546726 0.918015770704766 -0.8274814975951446 0.9419352607814189 -0.03161615273317886
0.670479529657386 -0.8995207836723871 -0.5018651058809165 0.46651067054187023 0.40905875930520263 -0.6943234560770692 0.07895743262937271 0.45465194105054785
0.8237330218175187 -0.6319249499573563 0.3996443984167468 -0.3183591273949826 -0.007955606245022118 0.14588415003685373 0.028696874183842702 -0.2110348037330423
0.7841889485871332 0.38615087127809633 -0.10816507801902264 0.3162270203397064 -0.7394990399096824 0.515417147287903 -0.9089772651939234 -0.7521273735037359
0.2550566029060177 0.17899546821431045 -0.6964093612512146 0.646232193359789 0.8835220844061227 0.12396383620155071 -0.40930383214008015 0.5003892863168908
0.22644886673648434 -0.23550221269145633 0.056528586314869234 0.7587524194252293 0.3769184259384175 -0.704469984198983 0.5287510337467507 0.021955214367134657
0.6042593775873368 -0.21050263802802172 0.8186867464518419 0.4631611942721483 0.43839420504923865 -0.8300505495335997 -0.25684487132349143 0.03954965500983754
0.4657055867982385 -0.5526873394663756 -0.08645930263887158 0.461383396105816 0.04124237470106662 0.43377432541920524 0.6215941523098716 0.002235271229825253
-0.04851580950728174 0.061639366070788126 0.9146332055918986 -0.1743001986681303 -0.9100157200226489 0.42076294401397596 0.38851339221041115 0.8861227677389476
0.559723960633699 -0.6472901429269822 -0.576030928202589 -0.5812641266644236 0.9225066180402739 0.7200226294096834 -0.01568285024296845 0.007531719232112044
0.8605655927537852 -0.21911446190331785 -0.10824633983328469 0.8443269595358334 -0.873259359151406 0.9234103331458963 0.6978835615610506 0.8641677444514262
0.5819787732769341 -0.7675747563572601 -0.7757674815629689 -0.4629299996425509 -0.06452359123838902 -0.9963620804193514 -0.7783336410426651 0.10705708628650301
-0.8647038687366944 -0.3341581866028427 -0.1606243393377611 0.18592513157328816 -0.5193700238610235 -0.45574320083096165 -0.6867911251484426 0.904539225007408
0.8971388107138911 0.5612177921449342 0.30095318820573014 -0.2516437277159127 -0.026478956388107378 0.13718041903949074 0.8901483867438265 0.5980378191379476
0.9964249576056841 -0.7568358534173762 -0.5261636140675949 0.7474462350471327 -0.6797135217676995 0.376959448762229 -0.49543577753923307 -0.43599713949268626
0.7528014295231671 0.4921843648485542 -0.4395991315995387 -0.12088545376452964 0.9724887426130198 0.6608622514189137 0.9807133911939943 0.7404672187871908
-0.9337319407611806 -0.1075542369237028 -0.44510529149794986 -0.3959588961256084 0.8171525237521167 0.4745741639123937 -0.8986893617320002 -0.09165351291753487
-0.17647951274450535 -0.5161293950006642 -0.6705509835746224 0.7244574822731962 0.3827352915850384 0.8853998572206849 -0.11959723342361239 -0.5833173213234966
0.9133424184860428 0.35525118928170385 -0.16058190171458375 -0.6139196764066703 -0.9873696852139662 0.17572278570451894 -0.30208991608804303 0.8635330477697212
0.2849172182448685 -0.6458819782657856 0.18562837321367298 0.4964974944861458 -0.7122573162602592 -0.19696104543270243 0.6641184415833383 0.5830156060191709
-0.935300185946139 0.9634569680469667 0.25106610097537096 0.06354351363478417 0.21471693761718247 0.03653418596455049 0.18135833122445777 -0.11062174940254832
0.7114589317953284 0.6543448843259692 0.8334431994340712 0.9911521510234842 0.7900574592656926 -0.9194882649340581 -0.03427701552005202 0.6219473646370259
-0.6780796883376321 0.6730057562915228 -0.1349046928816442 -0.09253645417898615 -0.005464042342205877 -0.020201583113810484 -0.34575251557245457 -0.9874489103336661
0.45378988435369294 -0.6678039441494044 -0.6778605643273601 -0.7848523249530857 0.7724090311006726 -0.3368337602740479 -0.6591103356009771 0.09815939093691428
-0.6978587062629482 0.2536870731937846 -0.5636320904096772 0.5137859336067567 0.8994445665847066 -0.3467614707716895 0.6579982494306142 -0.00876996556253884
