model/Generation/5/w2.npy (npy, 560 bytes, 1 tensors)

array f8 [9, 6]
000000 b8 e4 e6 c3 87 6d cb 3f 50 df 66 c1 5c c3 b2 bf
       0.2142801004936581 -0.07329349252438289
000010 3c d1 3b 7a 31 f2 ec 3f a0 87 09 66 55 3f a1 bf
       0.9045646083236885 -0.033686321931568175
000020 50 d6 b5 37 6a f9 b8 3f 18 94 3e aa 33 60 c4 bf
       0.09755576953997402 -0.15918584645001554
000030 50 b5 c1 4b 33 90 e3 3f 46 15 61 7b 2b 0b e8 bf
       0.6113525848028676 -0.7513635072470286
000040 d6 ad cb 6c 80 36 ea bf 24 e5 11 90 d3 64 ec 3f
       -0.8191530346788862 0.8873079122414862
000050 1e a0 15 2f b6 57 eb 3f 28 25 7e 6f df 5b dc 3f
       0.8544569892519609 0.4431074703976088
000060 20 9f bd 0c 7c 87 ac bf 88 c5 34 1e 19 a6 da bf
       -0.0557211652329086 -0.41638782453363676
000070 80 e1 07 28 52 13 e1 bf 02 a0 b6 9e 4a 91 eb bf
       -0.5336085111476194 -0.8614857768889126
000080 96 48 8f b6 d6 e0 ec 3f 98 9f 16 6a 7c b3 c0 bf
       0.9024461331957976 -0.1304774778375275
000090 6c fd 76 f9 6d ba e7 bf c4 d2 11 92 6c 82 eb bf
       -0.741507518039652 -0.8596709111139593
0000a0 d6 cf f9 fa 10 23 e2 bf 80 08 76 e2 0c a0 c8 bf
       -0.5667805578109391 -0.1923843484656267
0000b0 e0 d1 cf 76 e8 13 c0 bf 68 67 99 d6 91 7a de bf
       -0.12560754586560474 -0.47623105961758094
0000c0 04 62 8c 21 c9 28 ee bf 38 b0 5c f4 7b 7f d0 3f
       -0.9424787192575086 0.25778101790888597
0000d0 60 87 83 e8 54 3d b2 bf ec 0a b9 13 7c 22 e1 bf
       -0.07124834705930772 -0.5354595551692376
0000e0 cc 1e 38 16 8c 89 ea bf a8 41 be d7 13 b8 ef bf
       -0.8292904314011706 -0.991220399259011
0000f0 a6 41 3a bf 20 fc ed bf 00 c3 26 a4 33 33 ac 3f
       -0.9370273337281574 0.05507813814927509
000100 ec 28 74 6e 87 e9 d3 bf e0 21 e2 31 12 06 e0 3f
       -0.311128480782499 0.5007410978587892
000110 70 91 b3 5b a5 79 ea bf ea 60 ad 42 a9 93 e5 bf
       -0.8273493567508421 -0.6742750456133113
000120 b0 0a 0c b4 83 17 c6 bf 04 62 cf 55 79 f4 d8 3f
       -0.17259260455474168 0.38992150668994463
000130 7c b5 63 42 da 9d df bf 94 0d 7b 79 85 7c ef bf
       -0.494009556611523 -0.9839503643674328
000140 d8 d1 9b 0a 53 46 cd 3f e0 49 50 8f 99 eb ec 3f
       0.22870862977982997 0.9037597464651377
000150 e6 63 ea c9 cf bc ed bf aa 8a de bc 67 eb eb 3f
       -0.9292983001388364 0.8724859894612866
000160 c0 11 07 1f 73 9b df 3f 40 38 60 f4 1d 0f ac bf
       0.4938628962520646 -0.054802833634412185
000170 f0 e9 85 bc 21 90 b7 bf 60 7d 11 2b 64 16 ba bf
       -0.0920430264722325 -0.10190416385147705
000180 12 a2 1d f3 3c e0 ee 3f f6 ed a0 b9 3c 42 e4 bf
       0.9648728130678725 -0.6330855966147613
000190 50 90 ac 07 a3 f1 ee bf 1c a3 50 76 42 8e e1 bf
       -0.9669966840633695 -0.5486156760062815
0001a0 6c cf 05 2e 1c a0 ee bf a6 16 40 05 ec 12 e0 bf
       -0.9570446871643816 -0.5023098089738667
