model/Generation/2/w1.npy (npy, 5888 bytes, 1 tensors)

array f8 [80, 9]
000000 30 f8 03 c0 91 e9 db bf aa ee cd 12 b3 e8 ef bf
       -0.43613094092859495 -0.9971557013772856
000010 bc 40 64 99 aa f5 eb bf 90 51 6b 25 c4 c7 e1 3f
       -0.873738574593538 0.5556355219692239
000020 cc 35 2a 6d f5 2c eb 3f 30 d6 84 65 55 a4 c4 bf
       0.8492381221892003 -0.16126506287553033
000030 a8 c3 8c 02 a3 b3 e2 3f 68 11 6b e2 53 88 e9 bf
       0.5844283151437724 -0.7978915617209568
000040 48 bb 1e 26 14 ba ea 3f a0 d4 b2 4a 57 53 aa 3f
       0.8352146858722813 0.05141709124419802
000050 a4 cd fe 6a 12 ff ec bf b8 31 ba a7 3b c5 e0 bf
       -0.9061367120506714 -0.5240762973713151
000060 12 5b 04 ec 0c 2d ed 3f 80 57 a3 31 af 8a aa bf
       0.9117493257243459 -0.051839327630360366
000070 f0 fa d7 b6 8f dc d8 3f 20 8d b7 e6 e3 a2 a4 3f
       0.3884619985182516 0.04030525390023798
000080 44 5e 12 b4 0d 61 ef bf 4c 51 94 b0 fc 2e d0 3f
       -0.9805973546053299 0.2528678631217829
000090 8a 1f f2 bc 4a 91 ea bf 40 b7 ff b7 19 f9 cb bf
       -0.8302358332011732 -0.21853944286652371
0000a0 68 c4 85 38 6a 32 e9 3f b4 8d 74 16 97 eb d6 3f
       0.7874041656451825 0.35812928383731024
0000b0 58 b7 c4 e0 47 59 e2 bf 00 2a 76 8a 3e 1a 65 3f
       -0.5733985319145445 0.002575990820053109
0000c0 48 f0 d7 ac 68 55 d1 bf 32 1d 86 b1 ed 5c ee 3f
       -0.27083794478653944 0.9488438098204937
0000d0 f8 3c 0a 2b 22 a3 e1 bf 24 d5 07 00 3d 9c e6 3f
       -0.5511637535691127 0.7065720558736399
0000e0 80 c1 64 52 d4 7b 80 3f 96 b1 9b fe 20 7b e0 bf
       0.008048685802891198 -0.5150303814712511
0000f0 0e 07 87 53 77 fb e0 3f d0 5a 6e 3c 6d b8 b8 bf
       0.5306965476413283 -0.09656412816398618
000100 08 47 9b 5b 20 cd e0 3f 90 4e 76 50 9b 69 d1 bf
       0.5250398434820633 -0.27207072122221465
000110 74 62 99 c3 8c 74 ed bf 78 b0 29 a7 cd 54 c2 bf
       -0.9204772777839723 -0.14321299230812534
000120 d8 92 ff 8c d2 cd df bf 6e 38 ec 5a e1 4a e3 bf
       -0.49693740624779315 -0.602890660842389
000130 54 29 68 f5 73 5e ec 3f ee 73 c2 6a 9a 6d ed 3f
       0.8865299027541291 0.9196292958400798
000140 64 ff 8d f8 04 fc e2 bf 50 a0 31 42 69 b9 cd bf
       -0.5932640890677985 -0.23222079975244236
000150 f0 02 20 dd 88 61 bc 3f 30 8c 23 46 0c 06 b0 3f
       0.11086326025543847 0.06259228432058772
000160 24 24 c3 38 7f d4 d5 3f 54 1d d6 29 47 cb e4 3f
       0.34109478514852953 0.649814206802072
000170 1a 42 9f 42 3b b2 ef bf 70 19 d3 e7 a6 f7 e2 3f
       -0.9905067731106698 0.5927309539627412
000180 b8 35 5f eb 15 ba e2 3f 3c 05 bc a6 7a a7 e3 3f
       0.5852155301196751 0.6141942268879244
000190 28 1e f5 f9 59 e5 d3 3f 20 83 a3 f7 44 78 d8 3f
       0.31087350282584447 0.3823406618449088
0001a0 70 d2 01 0b 76 3c cd 3f d8 17 5b 47 db c5 d5 3f
       0.2284076265092554 0.34020120590537095
0001b0 b2 9e 24 c5 cf 75 e5 bf 60 45 ca 91 72 2d cf 3f
       -0.6706312990617873 0.24357444876344925
0001c0 c0 8a 6e 8c 54 79 92 bf 42 1a cd fe 94 22 e1 bf
       -0.018040963240887775 -0.5354714371285996
0001d0 7c af 6a 5e 87 6c d1 bf 80 76 7b 63 44 9a e5 bf
       -0.27224907131562026 -0.6750814383519383
0001e0 e0 50 30 d6 43 60 de bf c4 84 33 79 93 25 e0 bf
       -0.47462554852360306 -0.5045869223796662
0001f0 2c 29 12 d8 ae 48 d6 bf f0 ae c1 3e 9a 72 b9 bf
       -0.3481862173145085 -0.0994049456800743
000200 d8 2e 71 94 d7 13 ed 3f de 3e 6e de 78 71 e7 3f
       0.9086721324215103 0.7326015800808496
000210 18 34 40 c2 e3 53 e2 bf 8c 89 5b 9c f1 f3 d0 bf
       -0.5727404397927129 -0.26488914746564585
000220 8e 90 47 78 d9 f8 ec bf 64 77 9b 76 53 83 e5 bf
       -0.9053771352014495 -0.6722810093449252
000230 48 76 c8 61 54 6f c6 3f 90 27 a3 ed 99 38 e0 3f
       0.17527251028598045 0.506909336219211
000240 e8 80 80 01 92 2e d4 bf 88 6f 7c 8d 9f 37 d9 bf
       -0.31534242769886456 -0.3940199739170045
000250 fe 39 c7 03 1d da e4 bf a0 6e 4a 2a d4 c8 a5 3f
       -0.6516251634400871 0.04254782692188752
000260 26 e1 51 db d4 1c e7 3f b8 6f a6 ec 90 4c e7 bf
       0.7222694667425784 -0.7280964490960207
000270 90 98 61 e5 a1 cc e0 3f 80 d8 e3 df ab 3f e6 3f
       0.5249795417883139 0.6952723858692167
000280 66 c5 a0 87 e6 86 e5 3f e8 b8 10 19 63 eb ec bf
       0.6727173470482455 -0.9037337770039615
000290 cc 74 1e db 36 1d d6 3f d0 ed c1 d9 4b 2f cf 3f
       0.3455330982049645 0.24363086826984537
0002a0 40 91 74 e6 50 f5 ac 3f f0 9a 56 03 c0 bb d1 3f
       0.056559112674479994 0.2770843536949732
0002b0 76 0e ce 09 44 e3 ec 3f 42 c7 13 af cf 05 e8 bf
       0.9027424041273224 -0.7507093829610556
0002c0 08 a3 b7 e2 0d 64 da bf f4 f3 51 fe 95 bb d3 3f
       -0.4123568262134971 0.30832433544111315
0002d0 34 1e 20 68 30 3f ec bf d4 f2 b9 15 12 ea d4 bf
       -0.8827135118198783 -0.32678653833117477
0002e0 00 d4 f9 b6 f3 1c 63 bf 10 ee 70 b4 0a c5 ed 3f
       -0.0023331413320257788 0.9303029560318823
0002f0 88 17 6c 45 d5 a6 d4 3f ba 1e 5a d3 e8 0c e6 bf
       0.3226826837493424 -0.6890758636445391
000300 e2 a0 d1 85 9a c6 e2 3f 3c 60 33 84 bd 93 d1 bf
       0.5867436040544158 -0.27464235220168454
000310 fa 1d a4 7e b2 82 e5 3f 00 93 75 97 c4 3e ee bf
       0.672204253526558 -0.9451621015728904
000320 68 2b c6 f3 a3 d9 df 3f a2 de c3 78 7d b5 ea bf
       0.49765871816696583 -0.8346545561498326
000330 a0 fe 94 59 e6 b4 b6 bf fc 38 6a b9 f6 c0 df bf
       -0.08869781195698545 -0.49615257365157084
000340 98 83 0b ed 31 cb d3 3f a0 18 20 ff fc 09 d7 3f
       0.309277039994464 0.3599846354922054
000350 28 a9 ae dd 54 d7 c5 3f 78 7c 12 de c1 e2 ef 3f
       0.17063389610604784 0.9964303338382612
000360 40 ea 97 27 b3 f3 de 3f 2c 37 e2 5b f0 23 da 3f
       0.4836242567686533 0.4084435365010559
000370 28 17 14 d2 16 d4 d7 3f 4c e7 4c 35 f2 37 da 3f
       0.37231989398456955 0.40966468052976235
000380 80 48 ce 3a c0 1e da 3f 70 b3 39 18 63 8c d6 bf
       0.40812688582185075 -0.3523185478759876
000390 30 c2 85 14 4b 89 db 3f 0c a7 d3 fc 88 ac e3 bf
       0.43025471691274486 -0.614811414530068
0003a0 d8 93 57 29 1f 92 dd bf 42 5b d0 e6 f8 d3 ec 3f
       -0.46204356229128285 0.9008755214771116
0003b0 20 6b 64 0f 14 f6 a9 bf 5e f7 07 d0 ca 18 e1 3f
       -0.05070555389303011 0.5342763960941104
0003c0 00 06 b1 0c 0d 97 92 bf fe e4 bb fb f9 1e ea 3f
       -0.018154338740947296 0.8162813107184375
0003d0 22 aa d0 98 1e 00 ec bf 7a 79 57 56 2f cc e3 3f
       -0.8750145897550434 0.6186749159203793
0003e0 78 25 4a 7d c9 8b e4 3f 40 57 80 f9 2d 7c b4 3f
       0.6420638510764283 0.08001983014432046
0003f0 20 4f 19 d6 73 fe a0 3f c0 b1 f8 af 5c 3e 98 bf
       0.033191318402400194 -0.02367539238018579
000400 00 1c 6c 43 4d 96 d8 bf 40 51 c2 37 22 f6 c3 3f
       -0.38417369446000293 0.1559489032994268
000410 40 a5 3a fb 6e 8f e9 3f b4 fb 94 a4 e2 78 ef bf
       0.798758974725537 -0.9835065092555539
000420 9a 6c 6b be 2d ef e7 bf 80 1f 02 6f 76 b1 bc bf
       -0.7479466170438116 -0.11208286485827834
000430 8c 73 25 22 9b 51 ed bf ee 87 51 db 66 b3 ef bf
       -0.916211668674451 -0.9906496318401403
000440 10 27 ac 9a 19 12 e5 3f 48 d7 7a 18 85 aa e9 3f
       0.658459474653883 0.8020654180643101
000450 7e d3 68 05 a4 21 e2 3f 84 9f e4 5a 2b 70 dd bf
       0.5666065316823816 -0.4599712741496591
000460 3e ff 09 47 26 1f ed bf e4 b2 b6 76 74 64 d9 3f
       -0.9100524318200554 0.3967562827408939
000470 c4 52 09 be 75 7e e8 3f 06 49 e5 42 74 5f ed bf
       0.7654370032929241 -0.9179021174007012
000480 88 62 96 3a 93 d6 c2 3f 9c aa 80 22 30 c5 ee 3f
       0.14717331276621715 0.9615708040122004
000490 d4 a9 56 92 9f 20 dd bf d8 65 e9 0c b9 a5 ca 3f
       -0.4551161698424526 0.20818246012167552
0004a0 d8 11 f0 cf 5d ca c9 bf 34 14 fe 67 3c 96 de 3f
       -0.20148823407374894 0.477919675402805
0004b0 20 9b 90 50 5f 9f b0 bf e2 9f 32 0a 6c 2f e6 bf
       -0.064931828660161 -0.6932888220953795
0004c0 7a 45 37 4c 28 ed e2 bf dc 5c c0 90 b0 72 dc 3f
       -0.5914498795120118 0.44450010429268416
0004d0 68 ac 27 02 d6 65 c9 3f a8 fb 61 b5 db 72 ee 3f
       0.19842028718207705 0.9515207808143389
0004e0 c0 50 98 0f 40 ff 91 3f 58 25 e2 69 be 10 c0 3f
       0.017575264884798214 0.12551098032080676
0004f0 3c 65 94 7a d5 90 e7 3f 88 67 99 79 cf ca e5 bf
       0.7364299196371245 -0.6810071349129752
000500 fa 54 e9 b0 f7 41 e1 bf 68 90 12 de 47 f3 cc 3f
       -0.5393026786138357 0.22617433875450677
000510 00 64 fa fb bb 5a e1 3f e0 7f c7 2a b4 e0 c9 3f
       0.542325966019348 0.2021699150927807
000520 40 fb e3 59 81 03 a0 3f 94 ad 96 84 98 06 da bf
       0.031276743147819364 -0.4066525740442668
000530 c2 56 c9 25 84 d1 e9 3f 10 5c a0 77 10 51 dd bf
       0.8068257082001866 -0.4580727737642869
000540 d0 ed 3d 63 9c d5 ce 3f 6a 43 2f 40 b6 a7 ed bf
       0.24089388700291048 -0.9267226461034686
000550 00 e0 84 0e 3b 6b b6 bf 20 7f 2f dc b4 ad d3 bf
       -0.08757371048420737 -0.30747720243924626
000560 c0 45 52 ca ad 31 a9 bf b0 ce 22 8f 2c eb b6 bf
       -0.049207144687112514 -0.08952597136049678
000570 d4 39 1b e1 49 ec d9 3f e8 e6 62 c6 a6 30 d2 3f
       0.4050469110779009 0.28421944974580393
000580 b0 f1 fb 28 e4 06 c1 3f f8 34 61 73 ea d5 d8 bf
       0.1330228042715027 -0.3880563856844925
000590 ba 66 78 c2 7c c1 e0 3f d0 45 1c 3c c1 86 cb bf
       0.5236190603493107 -0.2150498908527383
0005a0 fc da cb fb 4b c8 db bf 60 12 4b bd e3 37 a4 3f
       -0.4341001471470205 0.039488903863035274
0005b0 24 69 a8 e2 66 17 dc bf 80 ce db 58 5f 88 84 3f
       -0.4389283383803948 0.01002573480534541
0005c0 c4 d6 5e 68 1a d3 de 3f 4e 58 75 52 c5 a1 ec 3f
       0.4816347140543764 0.8947474108233651
0005d0 0c e7 aa da fb e8 db 3f 54 7c 21 6a de 4b ef bf
       0.43609520296341553 -0.9780113289706471
0005e0 b8 89 7d 07 20 16 cb bf f0 18 23 0e b5 ff df bf
       -0.21161270490399686 -0.49998213177276707
0005f0 28 46 1a 67 9a 50 da 3f e2 b2 77 74 c1 9d e1 3f
       0.41116962498299126 0.5505072855717936
000600 8c bb 76 91 3c 9e dc bf 68 b7 cd 4a 17 93 ce bf
       -0.4471579952759661 -0.23886386063116594
000610 6e 00 88 eb 14 48 ef 3f e8 87 0b 2d 44 20 ec 3f
       0.9775490379543166 0.8789387588296877
000620 f8 e0 6a bb d3 96 d2 bf 00 32 31 86 18 b9 8c bf
       -0.29045575430383463 -0.01402491721651078
000630 e0 54 12 df ff 7c ed 3f 70 cd a7 a0 99 8e b8 bf
       0.9215087277285896 -0.0959259049630441
000640 20 5e d2 2f bd e6 b7 3f 68 c2 d8 05 10 34 d3 3f
       0.09336454789660609 0.3000526482674446
000650 0e 09 b8 26 cb 39 e7 3f f4 4c cb 24 00 d0 e7 bf
       0.7258048778751645 -0.7441406935344319
000660 a0 bb 52 a9 4d e5 b5 3f b4 73 d2 3d 11 59 db bf
       0.08553014167658413 -0.42731123959839157
000670 f2 15 ae ad 7f 80 e2 bf 10 53 f5 6c a1 96 b8 bf
       -0.578185881823343 -0.09604844007601465
000680 48 8a 0f bf 54 ee c4 bf 34 02 dd ee cb c8 da bf
       -0.16352328614364553 -0.418505652680355
000690 80 da cf 5a cb 7d cc bf e0 7d 98 6a db 35 a8 bf
       -0.222588939039003 -0.047285897028128465
0006a0 a0 ac b8 c6 8d 12 a2 bf da cd 9a 17 98 af e4 bf
       -0.03529780436323304 -0.6464348279027334
0006b0 94 03 8e 3c 6c 99 e2 3f 90 cf e9 2a 1a 51 cb bf
       0.5812283690175826 -0.21341254325272674
0006c0 06 93 f9 36 8c 7f e0 3f 00 d4 f9 8d d4 28 9f 3f
       0.5155697892883786 0.030429192700882624
0006d0 78 37 a6 be 8a 76 eb bf 00 e6 c7 0b ee a8 66 bf
       -0.8582204555147959 -0.002766098912840631
0006e0 26 07 35 1e 5b 61 e9 3f 6e e3 95 59 6e f3 e0 bf
       0.7931342687590799 -0.5297157048909023
0006f0 14 9a e4 18 b7 86 e5 bf d8 3e 52 b3 03 26 cc 3f
       -0.6726947294417323 0.21991010909959274
000700 52 67 28 6a d4 1a eb bf 96 ef 01 89 82 ca e9 3f
       -0.8470251153368997 0.8059704471520373
000710 90 5c e9 4d 4b 76 d3 bf cc bf 8e 27 56 34 ef bf
       -0.3040951023917353 -0.9751387379274035
000720 38 49 fc 61 ac 24 d0 bf 0c c5 26 24 57 a1 d1 3f
       -0.25223836487670637 0.2754724362412879
000730 60 7a ed 58 1b e3 c1 bf 66 23 a7 e4 3c eb e0 3f
       -0.13974325029535617 0.5287155595661772
000740 a0 e3 ad fb be 6b b7 bf a0 4b c1 bf b0 5e a4 bf
       -0.09148782391083765 -0.03978493061790478
000750 34 bf 01 db bd df e6 bf 1e 10 03 99 cf 76 ec 3f
       -0.7148122098423983 0.8895032871737418
000760 00 2c cb e9 af 90 5b 3f dc 51 45 c3 04 36 d4 3f
       0.0016824453261274908 0.3157970339719023
000770 c8 78 2d 72 d6 c3 c6 3f 12 e3 86 25 c9 ef ea 3f
       0.17785149169043835 0.8417707188556014
000780 48 39 29 62 b0 e6 d7 bf fc d6 92 01 cb 8e e0 bf
       -0.37345513902700533 -0.5174307852491604
000790 38 07 cb 42 65 b9 ee bf 0e a0 e3 72 e2 fb e0 bf
       -0.9601312927772829 -0.5307476276329923
0007a0 72 fd ec 9e 3f e1 e8 3f 64 bb c0 14 6e 21 ef 3f
       0.7774961570757297 0.9728308110551152
0007b0 2c 1b db 65 27 4e e7 3f 18 a7 f0 e5 be 44 c5 3f
       0.728290270745537 0.16616045215169417
0007c0 d4 53 1b 67 38 13 d4 3f 5a 89 e7 29 17 ab e5 3f
       0.31367311543482157 0.6771350687452398
0007d0 ec 30 f2 1f 43 25 d3 3f 28 ba 94 b4 0e 6d c1 3f
       0.2991493045781357 0.13614066903524358
0007e0 8a ee 3d 01 f3 19 e0 bf 48 7f d8 26 a4 72 ec bf
       -0.5031676315552016 -0.8889942892746854
0007f0 1e 34 bc e4 b7 d8 ec bf 38 45 e5 56 b7 42 e1 bf
       -0.9014548747524065 -0.5393940636805956
