model/Generation/2/w2.npy (npy, 560 bytes, 1 tensors)

array f8 [9, 6]
00000000: a0ac fcd0 1e69 afbf 1a9f 911e 8f21 e33f
00000010: 844f 10f1 8fdb ef3f 688f 6215 39f1 ed3f
00000020: 986a 775c 0860 e3bf aca8 ae45 3024 e63f
00000030: 7a3c f733 4bab efbf 00d1 9a0f 5894 c33f
00000040: 04f8 7d8e f508 debf 00bc 3fc2 df65 a0bf
00000050: 9e79 3c94 762b ec3f 0089 52dc 11eb d2bf
00000060: 5c11 5fbd 5037 d93f f098 704c 2464 b9bf
00000070: d66c 5939 d739 e8bf 96d5 06bc d1db e23f
00000080: 48ef 62bc 37ac c8bf 66e5 2040 8c2d ebbf
00000090: dc45 e444 b341 e23f dcaf 0242 0ce8 dabf
000000a0: 8014 8f1b f5e2 95bf 589d 8fe1 8fa1 cabf
000000b0: f04b 35c7 a095 e93f 20be 0f6c 71d9 d3bf
000000c0: c422 853c 12a9 dabf 0cec ce71 c907 e0bf
000000d0: c4f8 aec4 2bb0 d43f b47a 19ad f398 d03f
000000e0: a669 d0b6 ad9d e3bf f2e1 4352 40b8 e6bf
000000f0: f621 1e86 f50e e8bf 40cb fd26 f1c0 9a3f
00000100: a8a7 fdf9 0ad1 e8bf c8f8 042b dff3 dabf
00000110: 6292 e376 afdf e73f a49a aed6 161a ddbf
00000120: b8ce 3f25 4239 cabf 78a1 aede 4ed9 cfbf
00000130: aedd b181 3e43 e9bf c82a f4fc a1a4 c43f
00000140: f44f 3ea9 4392 e8bf b831 a1a2 ef9c d43f
00000150: ba40 358d c922 e83f 7c65 b227 7c13 e53f
00000160: a88b 4307 afda d73f b0a4 3cb7 903f e4bf
00000170: ec2f 6fc5 c41e d8bf 0af8 d518 2e13 eb3f
00000180: 5823 766a 9ca6 d0bf 4685 eac5 6e4d e1bf
00000190: e42e 2125 4595 dc3f 32b5 d387 e099 e43f
000001a0: 209e daad 42d8 debf a01c 7bf9 ed4b c13f
-0.0613488798247428 0.5978465649650133 0.9955520351672793 0.9356961648631854 -0.6054727369294879 0.6919175492269196 -0.9896598830181482 0.15296459924650918
-0.46929682650795734 -0.03202723737910418 0.8803055663336641 -0.2955975200258223 0.3940011834458994 -0.09918429247099758 -0.7570606346229407 0.5893334076305787
-0.19275566767270846 -0.8493100407132885 0.5705200524845924 -0.4204130787500142 -0.02137358647066323 -0.20805548204155389 0.7995151415619812 -0.31014667084579806
-0.41656928930437354 -0.5009505484407568 0.3232526226746695 0.2593354406762203 -0.6129978724086882 -0.7099916083089381 -0.7518260592924537 0.026126640324444894
-0.7755179293283065 -0.42113475037684767 0.746055347638116 -0.4547173592094771 -0.20487238711176814 -0.2488192164721672 -0.7894585164166779 0.16127419329889947
-0.7678545289550116 0.3220786178760835 0.7542464979142303 0.6586285376862828 0.37272239407883 -0.6327594355435817 -0.37687796860404776 0.8460913167070896
-0.2601691283858165 -0.5407022347973587 0.4466107237428629 0.6437838223334096 -0.4819494912903526 0.13512968713459816
