model/Generation/4/w1.npy (npy, 5888 bytes, 1 tensors)

array f8 [80, 9]
00000000: 222b 0074 5a69 e03f c4e4 9ee8 e7e6 d0bf
00000010: f0ac bbda c7b6 b8bf caec a190 f87b ebbf
00000020: 10e4 dd4c 88b3 ee3f ea05 d252 a04d ebbf
00000030: 2cf5 5660 496c da3f 6021 3d24 60c5 eabf
00000040: e64a 4624 e483 e53f 50d3 11c7 7199 ef3f
00000050: 146c 2343 ecf8 d5bf 7c68 414a 484f e03f
00000060: ae5d 0bf6 f9e1 e13f 68f6 166f f4fc c2bf
00000070: f244 9126 daf9 e83f 70d4 c85c 2de9 b7bf
00000080: 54d6 014c b809 ea3f 46e6 e143 3c8c e8bf
00000090: f6f3 ef8e a6ec e13f 5e29 4e14 be83 e13f
000000a0: 0cd6 708a fd52 eebf 688c 0136 4812 d83f
000000b0: 2097 2f46 3b37 bdbf 4c02 236d c210 ecbf
000000c0: e202 03db 33f6 e8bf b09a 9acc 1ab2 d5bf
000000d0: a0e6 1e3f 87e0 ed3f e859 c901 83c6 c1bf
000000e0: 005f 51ee 4cf6 c5bf 98ae 18da 2b6a eb3f
000000f0: 089b abf3 33b5 c03f e8b0 bd4a 424f cf3f
00000100: 9081 e6d8 4e66 c3bf d8ef a608 e517 e0bf
00000110: d07b ca38 c163 cb3f a0d4 6f00 0f02 aabf
00000120: 08c2 22b7 3fff d83f f4e6 030b ef7b e1bf
00000130: 6027 37b3 8293 ee3f b40b 763f 59e8 ef3f
00000140: d8da 0847 086a debf 3c31 0b13 212c d7bf
00000150: b4f7 5e12 63ae d9bf 9ce3 27be c447 d83f
00000160: e4a1 6ddd d796 e03f 9c38 f19a e6e4 eebf
00000170: c816 dbac 0a58 cebf 1c68 03f1 768a e23f
00000180: c073 7ac5 e9a6 c73f de41 ea1d f8c1 eebf
00000190: 72cf e20e 926b e0bf e065 9ffd fbfd a3bf
000001a0: e6a8 9135 a0fa ee3f 50ad 6b35 66be d33f
000001b0: ee62 9096 bda3 ebbf a852 61e2 fde1 c4bf
000001c0: 0ad1 9f06 0abf eebf b058 b545 87a8 e13f
000001d0: d0ac 1beb 9a4d ca3f c08f 19fe 88f8 d5bf
000001e0: 30d1 3158 401b b3bf baa4 165c 2357 e03f
000001f0: 4a04 f165 3942 e93f ea25 1876 846a e13f
00000200: 8c57 4049 6df7 e13f 008d 35e9 7c4f acbf
00000210: 2835 288e 6486 cd3f f6cd cd3c 8d54 edbf
00000220: d8a9 9037 7ca1 c9bf a068 d0eb ea01 c4bf
00000230: a03f 6812 3ed8 acbf 80ed a380 08c1 acbf
00000240: 66c2 8f4f 3c41 e53f 8c77 ae29 da80 dfbf
00000250: be43 d26b b786 e73f 58d7 277d 82c2 dd3f
00000260: ccda 6072 ec2b e83f b8d1 8e1d c583 c6bf
00000270: 7822 4409 f52a cd3f 6ac8 f2c3 0b8b ed3f
00000280: 64aa db5c 8d5d ef3f ea41 3730 43b5 ee3f
00000290: bc31 bc6c 2df1 dc3f e8e2 b140 40e4 e1bf
000002a0: d47e dee9 7c1b dabf 98ce 7db3 b544 cfbf
000002b0: 8092 6d72 ec6d cc3f c8bf d7cf c904 e8bf
000002c0: 88db 3ebd ac42 ce3f d018 4899 e4ec b8bf
000002d0: 1aa0 78c7 1c79 edbf 4c8e fdb8 ddee e63f
000002e0: 60c5 4bab 804e aabf 8c9d d1ec 4228 ed3f
000002f0: 90a9 bd00 af37 d73f 8e5f 9281 c942 e63f
00000300: 009c f45f 4ff8 6d3f 604c b2ac 53b7 a83f
00000310: d86f 2b93 6f92 e23f 40b7 2201 90a9 a73f
00000320: 0c48 fb36 d611 ed3f d0ad b784 470b e0bf
00000330: 02ab 404a 2287 ed3f 2099 1ccc ec26 c0bf
00000340: 143d 9600 8ac6 ec3f 9e21 72cf a387 ee3f
00000350: a802 89d7 7fb8 c4bf 0063 c14f 9c5d 94bf
00000360: fce2 ac1c 7ddf e33f 76af dc7c ad00 ef3f
00000370: 0081 9354 e536 703f 26a3 25df 290d e93f
00000380: 348d 6e75 84d2 d93f 00b8 da25 9229 68bf
00000390: 9882 f340 8a51 d1bf 84e2 2485 225f df3f
000003a0: a839 937d 0538 e73f 3e95 7278 9ab0 e2bf
000003b0: e840 aef5 208b d93f fee1 3f4d 5263 efbf
000003c0: 748b 287a 6d9a eb3f a81d fb73 5b2a e93f
000003d0: a480 9eac df9b dfbf 5050 0c26 9ef1 dcbf
000003e0: f03f e0c5 b3a1 d53f a21f b37d 01e0 e6bf
000003f0: 941c 4123 fda9 e9bf 38c5 8348 aeb7 ec3f
00000400: 70d5 c345 1e03 c63f 2ce4 ed09 856b e13f
00000410: dc1a 620a 3678 eebf 2c2a ba5d c817 d13f
00000420: c07a 8764 4d29 923f b014 6054 288c b43f
00000430: 2899 3ab0 6a68 cb3f 5842 f65f 7d2f e8bf
00000440: f01f 247a 0cde d03f 38db 7c61 7184 c7bf
00000450: 4670 de6e c28a e9bf 844f 73e6 fd0d d9bf
00000460: 9068 1443 bd4c b0bf f0f7 c99e 0a1d cc3f
00000470: 925c 2ea2 fabe e63f fcc4 b417 27fb df3f
00000480: 20d4 6df3 165c dc3f 3c96 de0c 5d07 e53f
00000490: 06b5 ec19 c84c e3bf 48ab da0b b230 e53f
000004a0: 80e6 392f 74f2 b6bf cea7 714c 2e56 e4bf
000004b0: 22d2 ce6a 6899 e53f 7484 3b70 931e e1bf
000004c0: 0094 97c4 f2cf cfbf 4c73 5ef9 9f0c eebf
000004d0: 887f 83a4 21ce d0bf 4cdd 4e37 0256 dfbf
000004e0: 78b9 142e 58de ecbf 1224 4743 bc37 efbf
000004f0: 58ab 5a31 b2a9 cd3f 5282 2ff2 d4e8 e3bf
00000500: d048 dfaf 7577 d1bf 087f 86d6 5ed3 e9bf
00000510: 48a8 35a8 a162 e1bf 2811 b0c0 91eb e23f
00000520: 501c 1718 8418 d6bf 0a9b fbca 3d22 e0bf
00000530: 9ca2 c60e 96d8 e13f 14cc 8288 5e66 dbbf
00000540: e4b7 5e1d 46e0 e63f 9029 4af4 c633 dfbf
00000550: 7068 8835 bb91 e0bf 9eba fe99 20a8 eb3f
00000560: 12e0 5aab f860 ee3f 2cb7 49bd fc06 eabf
00000570: d0bf c439 e372 e2bf 5c19 1d25 98d5 d3bf
00000580: e6a4 ba31 f73e e1bf 5487 766d d959 d23f
00000590: c032 002d 9b4a 98bf d0e8 2b18 7594 c53f
000005a0: e4f1 8473 c6ea ed3f 2c88 9dfa bb81 d6bf
000005b0: c05a 4e89 51eb c1bf b604 4c9a 5887 e7bf
000005c0: 78bd 5e41 ea02 ea3f 2056 bcbe 5eef d23f
000005d0: 4e00 739e 07c5 e7bf 68a9 c972 0250 cdbf
000005e0: d016 580f 957c e1bf b0fa 587a 8367 db3f
000005f0: f0f6 d7f8 c3cc c53f e098 e23c 2e73 ba3f
00000600: 5467 6674 bb44 e73f 7072 ce98 8a8c db3f
00000610: 2aa3 bcaf ffab e9bf 0697 c3f9 d609 e7bf
00000620: 7a59 40b4 e1a6 e7bf 440f 6c3b cada d63f
00000630: 86f3 ef54 935a e73f 16a8 776c 5097 e8bf
00000640: 70ad 249c 8eed e83f 3648 0e6e a7bd ef3f
00000650: 9e2a 43a6 2643 e43f eccc 45e9 0c72 eb3f
00000660: 80f9 0e66 5270 de3f f43d f6d4 3a1e e93f
00000670: 6029 130e bbf7 d33f a016 b020 e9eb c0bf
00000680: 58bd 8feb b9cd c13f ca1f 9cff f016 eb3f
00000690: b066 a909 b965 b43f 98a5 106b dcdc e5bf
000006a0: 182d 4b73 e8dd c33f 441f 8ee1 26eb d33f
000006b0: 2c00 91ec 3488 dabf 2e38 5d64 c2c1 e5bf
000006c0: 0cc5 bcb6 27c6 d5bf 106b 8b2e 3948 e23f
000006d0: b00b 78a4 5c60 d9bf 8686 aa37 af5e e8bf
000006e0: 909f 7c18 5198 c03f 96a0 9ab8 9e0f e73f
000006f0: 3ace 9bcc 122c e33f 8023 2b38 9796 9dbf
00000700: 0294 291b ebf2 e2bf 741c 8ad7 6596 d33f
00000710: 30ca d4d8 abad c1bf 5ecd c3bf 4f0d e0bf
00000720: 008c 29bf eef6 c23f a8ae 22b1 7fa2 d7bf
00000730: ceaf b6fb fad9 e03f dceb 3dde 9661 ea3f
00000740: b8c6 24ec 7bfd c0bf 3ac6 c665 7762 ee3f
00000750: 9205 2d8e e5e4 e23f ccfe 0b36 a1b3 e5bf
00000760: 88c9 b0fd 7b5e e23f 0028 937a dd25 95bf
00000770: 0698 7b5b 92de e5bf 66de 27c1 2a9e e8bf
00000780: 6ca1 8e46 5936 e0bf 9402 6bb6 9ff5 eabf
00000790: caf1 6f90 fd23 e3bf e800 4b3b b617 df3f
000007a0: 7edc fdc4 7df8 e93f c018 df5a 23e3 ee3f
000007b0: 0027 58c0 bbe5 983f 4868 5a8b bb47 e8bf
000007c0: 88d7 f52f 3725 c1bf 38d6 41bf 3c4b d33f
000007d0: 78ea 27d6 b068 ea3f 30f2 e374 474f b1bf
000007e0: ac6c 58bf 84c3 e3bf 7265 7c8a b202 e8bf
000007f0: 986b 5b8a f175 ef3f 6817 dc2b d8d1 eabf
0.5128605142248015 -0.2640933772741614 -0.09653901186145553 -0.858883173451795 0.9594155789665155 -0.8532258622728339 0.41285929115459186 -0.8365936954296949
0.6723499973762415 0.9874810112074588 -0.3433180480621456 0.5096780252745385 0.5588350110582974 -0.14834456848432187 0.7804995301504773 -0.09340175166365028
0.8136865124240082 -0.7671185804203524 0.5601380149597606 0.547331847819162 -0.9476306632920468 0.3761158492472476 -0.11412401641390746 -0.8770458346917365
-0.7800540235112658 -0.33899564724780884 0.9336582405878353 -0.13887059771759813 -0.1715789951001554 0.8567103633590305 0.13052987478223366 0.2446062912889666
-0.15155969229546118 -0.5029168290125154 0.213981774072606 -0.05079695587475297 0.3905791557727132 -0.5463786330357991 0.9555066585828449 0.9971128692126201
-0.4752217000672494 -0.3620684324239567 -0.4012687377361275 0.3793804032316588 0.5184134793062722 -0.9654419923988544 -0.23706181946015747 0.5794024188319358
0.1847812856912281 -0.9611778816488898 -0.5131311693898921 -0.03904712172488778 0.9680939718503196 0.30849604813439147 -0.8637378636077224 -0.16314672044486156
-0.9608202103977714 0.5518223153583417 0.20549332122695896 -0.34329438032568405 -0.07463457253635819 0.5106369780161437 0.7893340102238053 0.544252615597711
0.5614534788789896 -0.055293944805066886 0.23066384259474515 -0.9165712535454407 -0.20024063790454139 -0.1563085223613756 -0.056337299105620575 -0.05616022653881725
0.664213328736946 -0.4922395140691769 0.7351948839078586 0.4649969312880464 0.7553617700530935 -0.17589630072838047 0.22787344887207772 0.9232233836285222
0.9801699460634379 0.9596267644611178 0.4522203027597944 -0.5591126693317081 -0.4079277309301521 -0.24428435577612073 0.22210460269265653 -0.7505845126561264
0.23640975227837324 -0.09736469976641904 -0.9210342307969797 0.716658459958532 -0.05138017741217982 0.9111647248618495 0.3627736575350804 0.6956527262400287
0.003658442524869354 0.04827367289649298 0.5803754686744425 0.04621553434240733 0.9084273408755066 -0.5013768760813324 0.9227458429571416 -0.12618789640800632
0.8992357264959616 0.9540576030422476 -0.16188047432117014 -0.019888346069225626 0.6210313377442556 0.9688327254020652 0.003958602735309791 0.782856880029702
0.4034739634318669 -0.0029495100451049083 -0.2706018099106955 0.4901815700755281 0.7255885555876391 -0.5840580322734821 0.3991167449212427 -0.9808742054729576
0.8626010309129541 0.7864205613376969 -0.4938887773260012 -0.45224717822680294 0.33799452136827224 -0.7148444609710973 -0.8020005882798551 0.8974219719222338
0.17197016149990985 0.5443749612742343 -0.9521742060468017 0.2670765795998331 0.017735680828873113 0.08026363429970007 0.21412404637266857 -0.7557970880753357
0.2635527794632244 -0.18372933635847644 -0.7981884160431114 -0.3914789915554524 -0.06367094886482705 0.21963627580038247 0.71081287075039 0.4997041446213897
0.44312070629468003 0.6571488620144872 -0.6031227594700403 0.6621942740942837 -0.0896370520876193 -0.6355201237722612 0.6749765478221585 -0.5349824134865586
-0.2485335788652776 -0.9390411253440134 -0.26258126321590014 -0.48962455178430697 -0.9021416568773892 -0.9755536378880854 0.23174121293899463 -0.6221718530833391
-0.27291624236125944 -0.8070520582150218 -0.5432899747222644 0.5912560237343643 -0.34524633743825905 -0.5041798557766424 0.5576887405960238 -0.42812312441964306
0.71487718330695 -0.4875352273599214 -0.5177894635737754 0.8642733581271675 0.9493373247887595 -0.8133529374151514 -0.576524365262225 -0.30991176247007046
-0.5389362307807033 0.2867339676832803 -0.023722099897031113 0.1685930603051191 0.9349090820538177 -0.35166835283428344 -0.13999385074995097 -0.7352717412578815
0.8128558422812793 0.29585999132663865 -0.7428014845572848 -0.22900419812078643 -0.5464577960671821 0.428192967872671 0.17031144762579897 0.10332001673177471
0.7271401666105057 0.43045296595099725 -0.8022459442482603 -0.7199511411861017 -0.7391212959799269 0.35710387995662907 0.7298065813953236 -0.7684709661964486
0.778998665778472 0.9919011258628021 0.6331971404373069 0.8576721721750835 0.47560558287286625 0.7849401626025938 0.3119952809762676 -0.13219942184530442
0.13909076692605526 0.8465504639034347 0.07967716680414116 -0.6832105723489574 0.15520959500859344 0.31122753168937245 -0.41456339933575026 -0.6799022636639671
-0.34021942944953376 0.5713163289140955 -0.3965064626829031 -0.7615581595639049 0.12964833923001295 0.7206567388102652 0.5991300579320928 -0.02889477043462163
-0.5921531229511177 0.3060545544507882 -0.13811252677403862 -0.5016249413878702 0.1481607850465423 -0.3692931394423149 0.5266089359552042 0.8244127598439905
-0.13273571997119915 0.9495198238202598 0.5904414917824161 -0.6781774573900861 0.5740337328809781 -0.020652256590246054 -0.6834193980000698 -0.7693074963162416
-0.5066343668050144 -0.8424833834506722 -0.5981433697739302 0.4858222559960397 0.8115834090703087 0.9652268194993425 0.024313863386885792 -0.7587564203015598
-0.13394822923481464 0.3014671199556207 0.825279634736332 -0.06761595348138694 -0.6176170098509792 -0.7503292755892927 0.9831474020278277 -0.8381157738337892
