model/Generation/4/w2.npy (npy, 560 bytes, 1 tensors)

array f8 [9, 6]
0.7447774195392631 -0.23067132167816262 -0.3241227676695191 -0.8334378427289211 -0.7883551872097456 -0.0007730020829270767 0.7297242815065497 0.21851539889720706
-0.6776747000121759 -0.2948478491479547 -0.04147500154033357 -0.46818769319972 -0.3804886304600643 -0.6682140874882632 -0.784124488127234 -0.9568228156541643
-0.18284988073167807 0.8364467939186446 -0.18056654329990884 0.12875654257146119 -0.7026341640412033 -0.45057584783742155 0.8252067944301666 0.9768023303530231
0.5545375886989048 0.2081391081310311 0.4510479651427628 -0.39587664563280334 -0.3183505631425734 0.5103151839268263 -0.15595716096833545 0.11243576765233976
-0.5617931688745219 -0.24283571322718345 -0.8085455883346948 -0.22553653432139842 -0.47558943735413184 -0.31646022235474236 -0.07118799945843102 0.393609737200169
0.9358161777072431 -0.2608971083142857 0.8291423907775066 0.8822356708221086 0.113702613244963 0.6267102434609322 0.7418037233010766 0.13801991626285903
0.14525627231988292 -0.8503389509309691 -0.36739404682727983 0.5708039468374697 0.6932435411821882 0.4135424098095921
00000000: 920d 7774 37d5 e73f 88cc 5d4b a386 cdbf
00000010: d0e4 c16b 6dbe d4bf ce9f b8d6 85ab eabf
00000020: 8054 56a8 343a e9bf 0098 3c55 6954 49bf
00000030: 085e 85bc e659 e73f 88cb f705 50f8 cb3f
00000040: 0020 3cda 82af e5bf e4ba 5883 c9de d2bf
00000050: a03f 6f1e 363c a5bf bcad ab83 c9f6 ddbf
00000060: 00da 14fc ec59 d8bf 64a2 8f82 0262 e5bf
00000070: 88f9 0f3d 8c17 e9bf 06a4 a9e1 4a9e eebf
00000080: a8f7 e8f8 9f67 c7bf 2c30 1711 2cc4 ea3f
00000090: c0c8 1cf3 cd1c c7bf 50c7 be29 187b c03f
000000a0: 1e7f 73a4 fa7b e6bf 9411 b514 3cd6 dcbf
000000b0: 4877 5014 1868 ea3f f6ba f0f5 f641 ef3f
000000c0: f2a9 fb9c c5be e13f 587f 3863 4da4 ca3f
000000d0: fcca cd48 f8dd dc3f 7c8e 8fff 0a56 d9bf
000000e0: 0413 570a db5f d4bf 32c6 3382 8054 e03f
000000f0: 20cf f77c 67f6 c3bf 10ab f728 97c8 bc3f
00000100: 36d5 edaa 35fa e1bf 8048 4e9b 3d15 cfbf
00000110: 7c1f 67ff 9adf e9bf d856 7b93 61de ccbf
00000120: 1094 f0ad 0e70 debf 88e7 5f60 e240 d4bf
00000130: 10a8 8a71 6039 b2bf 405c 2ae5 e630 d93f
00000140: 2c40 cac4 34f2 ed3f 442c f5c8 89b2 d0bf
00000150: 8abb 839f 5588 ea3f 6075 314d 463b ec3f
00000160: b05a 5b4d 9d1b bd3f ee73 f7a3 020e e43f
00000170: 0e22 7429 dbbc e73f 78d7 45f9 a2aa c13f
00000180: e08d 93ed c197 c23f 466e 1808 fa35 ebbf
00000190: 9091 f751 6283 d7bf 6a07 83a3 0644 e23f
000001a0: a44d 3114 0d2f e63f e009 6995 7a77 da3f
