model/Generation/0/w1.npy (npy, 5888 bytes, 1 tensors)

array f8 [80, 9]
000000 04 e2 8b 12 c5 db e3 bf 70 a0 fa 9d e8 1d df bf
       -0.6205773699030606 -0.48620047977102043
000010 d8 35 6b 5e 1c 2b d4 3f d8 b9 d3 8e db 0a c8 3f
       0.31513127537331576 0.18783134912469168
000020 40 1a 2b e3 38 2f a2 3f 62 36 44 08 68 8f ed 3f
       0.03551652691890128 0.9237556611494251
000030 86 b7 a7 bc fd 12 e8 3f 94 37 4c 71 47 47 d0 bf
       0.7523182568236144 -0.25435052932959334
000040 40 c0 40 da fa a0 b7 bf a0 2d f9 e0 c3 75 ca bf
       -0.09230010822716483 -0.2067189072134683
000050 0c f0 c1 fe ca 9f d7 bf 50 29 b1 13 0a cb c4 3f
       -0.36912798765820365 0.16244626962208963
000060 d4 7e 2f ee d1 8f dd 3f e0 2b be 8f b5 26 d4 3f
       0.4619030786543423 0.314862623571285
000070 88 7a 1f 1d 94 f7 d7 3f 5c 5e 0d e5 14 07 e1 bf
       0.3744859966663303 -0.5321144555736725
000080 d8 15 2c e1 5a ad e0 3f de be 6e aa 44 30 e5 3f
       0.5211614988226598 0.6621421173822133
000090 b8 9e c5 7b 6d d6 e1 3f 56 35 bc 02 cd 10 e5 bf
       0.5574252526684722 -0.6583008817121179
0000a0 40 bd 64 1b 87 7b be 3f b0 54 38 de df dd d5 bf
       0.11907238405978138 -0.3416671438329315
0000b0 50 7d fb dc 0c e4 e5 bf 30 94 2c 59 bc 55 ed bf
       -0.6840881649076582 -0.9167157880480143
0000c0 48 f4 cd 2e 67 6b e4 3f 1a d9 9d b0 30 93 ed 3f
       0.638110724844986 0.9242175530951358
0000d0 66 72 1c a1 cc 8c e1 3f 8c 81 e1 be 34 5d e9 3f
       0.5484374186231207 0.7926276901380773
0000e0 b2 46 ff 44 6b f0 e6 bf e6 d5 87 9e 83 0a e5 bf
       -0.7168480250931764 -0.6575334640789918
0000f0 d6 7d b2 a8 b3 41 e4 3f b0 e6 43 67 05 b5 d5 3f
       0.6330202383869004 0.33917365154739354
000100 a8 91 68 07 3b a7 d7 bf 1e b9 09 3b 63 54 e8 bf
       -0.3695819446895947 -0.7603012230954709
000110 b0 ec f6 d7 6d 38 e5 bf 78 cd d2 89 9d ac e0 bf
       -0.6631383150155639 -0.5210712139000142
000120 66 06 d1 6d db fc e9 bf 6c 7e e0 22 57 83 eb bf
       -0.8121163506368247 -0.8597827607336064
000130 ea 56 7a 77 c6 40 e7 bf 90 24 4e d7 c2 90 b7 3f
       -0.726657136302234 0.0920526290557453
000140 1c 77 f0 aa 81 ce eb 3f 80 af 65 33 47 73 89 bf
       0.8689583147676987 -0.01242690682985148
000150 80 76 72 f6 23 39 96 3f b0 f3 40 f3 93 cf bf bf
       0.021702348629892843 -0.1242611378556393
000160 36 52 85 ff 8b ec ef 3f a4 f2 59 94 b6 13 d4 3f
       0.9976253500595422 0.31370319831311577
000170 e0 a8 0b c9 c2 f0 d0 bf b0 b4 c9 cb 28 1f ec bf
       -0.2646948779426008 -0.8788036327583963
000180 2a d8 57 20 0c bc e0 3f d0 46 b9 cb 8e af c0 bf
       0.5229550010396953 -0.13035759875724873
000190 50 ee fd 82 09 03 c3 3f e0 8e 9f 64 0b b8 e4 bf
       0.14853018661584594 -0.6474663701341932
0001a0 70 5e 4e a9 80 56 bc bf de bd 43 ba 56 54 e2 bf
       -0.11069492467356112 -0.5727952611904887
0001b0 44 c7 d9 e2 fc 95 e7 3f 38 8e ad d0 ce 35 d1 bf
       0.7370590620687172 -0.2689091718550318
0001c0 e8 18 cf ca 74 64 c6 bf 20 41 c7 31 a9 72 b9 3f
       -0.1749406805303757 0.0994058367280144
0001d0 ce 6c 6e 5a 7a 20 e6 3f 98 1e 0c dd d0 fc d8 bf
       0.691464592574812 -0.3904306563058326
0001e0 78 00 fd 53 7b e2 dd 3f 38 cc 14 7e 6c f7 c6 bf
       0.4669483490179185 -0.17942577511129953
0001f0 50 21 b4 5b 06 b5 db 3f 50 f8 41 e6 d5 d0 cc bf
       0.4329238791983885 -0.22512315505076907
000200 1c e1 02 94 38 ba e1 3f cc 67 68 d7 93 50 db 3f
       0.5539820566982914 0.4267930606453063
000210 38 78 56 6d d3 f4 e5 bf ce 58 d5 93 93 52 e2 bf
       -0.6861359725478513 -0.5725801360483957
000220 50 36 63 24 3e c2 bd 3f d2 87 9c 03 17 41 e7 bf
       0.11624515903823718 -0.7266955442939838
000230 40 7b 53 b3 e5 2d e1 bf 00 eb 30 46 6d 04 d1 bf
       -0.5368526937926177 -0.2658951936206648
000240 88 27 68 7f 6a 40 e3 3f 90 62 b5 85 60 1d b0 3f
       0.6016132820525266 0.06294825806015525
000250 70 b1 79 d3 7a 11 d5 bf b2 90 9a 06 d6 d7 ed 3f
       -0.3291918816746806 0.9325971726398363
000260 b0 43 95 95 0a fd c4 bf f0 41 ee 8d c4 94 c9 bf
       -0.1639722090135627 -0.19985253267488146
000270 c0 06 16 cc e7 e3 be 3f 56 9e db 07 91 31 ea 3f
       0.12066506130761478 0.8185506013368904
000280 58 bc 16 f2 4a 25 ce bf b2 a5 52 8e ef 6e ea bf
       -0.23551308460943932 -0.8260419635527596
000290 80 8b e5 04 e7 25 b5 3f da 72 65 48 22 16 ea 3f
       0.08260959500834808 0.8152018941869656
0002a0 56 16 e8 24 1e 49 ec bf 72 f9 f6 cf e6 16 e0 bf
       -0.8839255066711285 -0.5027956067859078
0002b0 68 e9 3a 6f 08 b9 ce bf 20 c0 59 d7 4a 04 af bf
       -0.24002175742300413 -0.06057962302008968
0002c0 d2 cc c0 d9 54 61 e4 bf 94 85 78 62 1e 5d e4 3f
       -0.6368812802305917 0.6363670275933822
0002d0 78 d9 65 6e 99 f3 ee bf e8 f0 e0 f1 40 e0 e8 bf
       -0.967236247654724 -0.7773747181122674
0002e0 1e c0 63 aa ea 62 e2 bf 90 aa e7 46 f1 ad b0 bf
       -0.574574787895475 -0.06515415173604766
0002f0 9c 37 f5 f3 1e ea d0 bf 62 6f 67 7d bc 60 e0 bf
       -0.26428960632335374 -0.5118086289689752
000300 0a d3 57 f0 3a 9e ee 3f 32 b7 91 01 ee 01 e4 3f
       0.956815213604018 0.6252355604790181
000310 70 39 31 bd 55 86 da 3f 3c 9b 3e 99 07 41 d3 bf
       0.41444915271576743 -0.3008440968064183
000320 2c d6 7a 8c 53 c8 d4 3f a0 1a 26 f4 e0 e8 d3 3f
       0.32472695082410286 0.3110887893930485
000330 70 bd ef 3e bd 57 bc 3f 96 df 0a e7 b8 4e e8 3f
       0.1107137945798422 0.7596096527622531
000340 6e 70 21 56 3e 6d e4 3f b8 35 22 a5 0a 34 dc bf
       0.6383353883970935 -0.4406763661034705
000350 78 87 be 50 81 a5 c4 bf 9c 33 a8 5e ab da e7 3f
       -0.16130081598845059 0.7454430435915245
000360 ae 2c 95 c8 b4 3a e0 3f 2a 09 ba e2 90 33 ec bf
       0.507166282427894 -0.8812946727996736
000370 40 8d 2c 98 39 ed aa 3f 8e fe 77 33 8c 07 e6 bf
       0.05259113295167106 -0.6884213452576249
000380 2c d4 c2 e5 10 f1 e4 bf 12 46 46 74 21 ae e2 3f
       -0.6544270026703365 0.5837561865793666
000390 70 56 04 f2 e2 71 ea 3f 34 b3 d9 af a6 5e e5 bf
       0.8264021613019406 -0.6678040918901389
0003a0 ea 3f db ad 56 8c e3 3f 00 ea 52 8a b2 85 83 bf
       0.6108811755784676 -0.009532351347265156
0003b0 f8 e2 ed 32 36 77 d7 bf 1a 34 94 9d 38 e0 ef bf
       -0.3666511056285766 -0.9961207463944703
0003c0 80 8b 05 00 b8 7a ca bf 38 ea 37 a4 6f 87 c3 3f
       -0.2068700790506135 0.1525706817481749
0003d0 b4 85 55 b4 d6 a3 e3 bf f0 73 da 1f 38 0d b6 bf
       -0.6137498399877388 -0.08613920953435161
0003e0 ee 85 62 21 06 c1 e1 bf e4 db 3f a8 14 42 d8 3f
       -0.5548124935195895 0.37903324537859207
0003f0 28 7c 63 60 a2 74 d6 bf 60 f2 98 e2 e8 d1 d6 bf
       -0.3508687917037059 -0.35656187180192056
000400 3c 99 55 6d 5b bb d6 3f ba f3 97 c3 63 a4 e5 3f
       0.35518537213501467 0.6763171024500629
000410 f8 05 e4 e6 84 01 d7 bf 04 71 a7 a7 28 1f d3 bf
       -0.35946772144242756 -0.29877678272693253
000420 a0 7e 23 21 39 3e a7 3f 92 1f d7 b0 cc 5e ee 3f
       0.04539660005116031 0.9490722135460479
000430 cc 68 d0 07 d0 19 d4 3f a4 45 9d 48 4a e0 d0 bf
       0.31407547724815 -0.2636895856022312
000440 7c 8a 9d d8 c4 be ef bf 04 55 34 ce 75 5b da bf
       -0.9920372229356214 -0.4118322862353383
000450 ec 13 d0 96 e6 71 e5 3f 88 e7 1f 50 10 60 e9 bf
       0.6701538987696245 -0.7929765286382784
000460 00 43 6d a6 51 ad ed 3f 60 60 c3 29 79 f7 dc bf
       0.9274070978663929 -0.4526045711368223
000470 f8 b1 a7 e0 68 64 ca bf 98 fa 7f c6 7b a8 e1 3f
       -0.2061892601917774 0.5518168332053675
000480 f0 5e 43 ae 4d 82 ce bf e4 ad 5f 0f a3 10 d1 bf
       -0.23835154541915626 -0.2666404390463113
000490 76 c2 75 57 79 c7 ed 3f 10 e5 d4 0c 49 cc d1 3f
       0.9305998523905845 0.278093588381652
0004a0 a4 4e fa 19 85 fa da 3f 58 78 a6 49 06 4e d1 3f
       0.4215405229271971 0.2703872412911372
0004b0 68 63 7e 67 09 75 cc 3f d0 94 25 a2 4b 6e b5 3f
       0.22232167771724254 0.08371422489797742
0004c0 e8 19 3a 97 83 71 e3 3f 1c 8f 3a 7f 16 27 d8 3f
       0.607606692662384 0.3773857347934937
0004d0 94 60 0c 0f f7 e6 e5 3f 58 c7 70 5a ef 92 c8 bf
       0.6844439786828098 -0.19198409954111173
0004e0 1e ce d7 ab 41 7a e8 3f 7a fc d8 86 af fa ec 3f
       0.7649238926227928 0.9056012758009182
0004f0 d4 0c 29 d5 f7 58 dc bf e8 d2 05 a3 fd de ed 3f
       -0.4429301816600859 0.9334705528295588
000500 38 81 0c 57 e0 90 ec 3f 3a 84 91 b6 9e d7 e9 3f
       0.8926850986645496 0.8075707975186852
000510 3e 81 7e fd 02 dd e3 bf c2 a1 11 df ea fe e4 bf
       -0.6207289649064831 -0.6561178547681765
000520 2e 68 d7 26 1e 77 e3 bf 44 41 4a 80 78 41 db 3f
       -0.6082907446500536 0.42587101486516965
000530 e0 41 4a 83 f7 bf bc bf e0 16 d9 86 a6 f4 a3 3f
       -0.11230418162654798 0.03897591014951529
000540 98 fb 0f cc 61 d0 d7 3f 92 6e af 00 27 ec ee 3f
       0.3720936291501231 0.9663271916756051
000550 08 f2 a1 f8 50 60 ce 3f 5a 43 86 6b dc 65 e4 bf
       0.23731434002174034 -0.6374342060172282
000560 b2 e4 48 c5 fb 32 ec bf fc 99 64 cc 4b 4a d9 bf
       -0.8812235692231722 -0.39515967331172397
000570 d0 09 f4 48 03 ad e9 bf f4 3d 81 55 4d 0b d8 3f
       -0.8023697304600379 0.37568982458193934
000580 18 24 2d c2 81 1a e0 3f 40 b4 a8 1e 0b 26 a1 3f
       0.5032357018000111 0.03349337338691116
000590 50 44 a6 97 33 df bd bf 28 57 6a 73 0b 86 d7 bf
       -0.11668703510646705 -0.3675564410308305
0005a0 ac 7e 0a 5c 96 d9 d5 bf 00 cc 09 05 78 74 5f bf
       -0.341405477412972 -0.0019198581759638511
0005b0 fc 6f 04 2d cf 52 e9 3f 78 a7 e5 60 49 f6 ce 3f
       0.7913585547680664 0.2418910716181093
0005c0 7a e7 9f 81 20 bf e5 3f a6 48 9a 7a cb 73 e3 bf
       0.679580929921243 -0.6078851122458857
0005d0 9a e8 19 a8 02 53 e9 bf 84 db 3a 53 d7 fe d8 3f
       -0.7913831027247114 0.3905542671959028
0005e0 20 81 57 0e 6c f9 ef 3f 2a 92 96 28 9e 60 e5 3f
       0.9991970329392963 0.6680441658723499
0005f0 98 4a cf bf 0d 4c e4 bf 40 a8 40 ef 39 8d ea bf
       -0.6342838999065235 -0.8297395394231515
000600 8c 22 07 78 38 ba ec 3f a6 52 fe bd b5 f9 ee 3f
       0.8977320045751909 0.9679821692285102
000610 92 35 ed 41 f6 20 e6 3f 1c b3 a1 6a 27 01 d0 bf
       0.6915236747387772 -0.25007043278928776
000620 10 43 c4 51 56 60 c4 3f e4 35 ff 40 d9 30 e1 bf
       0.15918997757446407 -0.5372129697295205
000630 18 50 34 fa 8e b9 c2 3f 2c 4d 57 53 32 de d1 bf
       0.1462877961827196 -0.2791868032338296
000640 b0 5f 45 8a b7 aa de bf 02 33 33 ba a9 87 ec 3f
       -0.4791697359373712 0.8915604244917577
000650 28 67 e2 f1 c6 c9 c1 3f aa ac 56 d3 4d 9b ea 3f
       0.13897024927865087 0.8314580085474479
000660 10 82 1a 9d fe 7e d7 3f 06 49 89 71 ce e5 e1 3f
       0.36712613432067176 0.5593025414948734
000670 d0 c8 de 05 40 a1 c6 3f 48 6f fd ce 59 1e c9 3f
       0.1767959622062052 0.19623873335774022
000680 28 50 0a 89 b3 73 e9 3f d0 cc 03 34 af 2b ba 3f
       0.7953736950462416 0.10222907085317279
000690 40 07 8a 13 54 04 cd 3f 36 a6 61 73 56 a6 e2 3f
       0.22669459299145878 0.5828048947852895
0006a0 28 3a 9f d2 84 d1 ce bf 2c 00 b4 f8 e6 20 e0 3f
       -0.24076900753284858 0.504016385792061
0006b0 08 37 dd 0e 6d e3 d2 bf f0 01 55 6b 2d 77 c9 bf
       -0.2951309819371635 -0.1989495061952904
0006c0 14 b9 55 33 e1 ba e7 bf 00 06 9e 04 fb 27 79 bf
       -0.741562462104215 -0.006141644038395011
0006d0 38 1b 04 c6 5b aa ce 3f 98 50 af 1d 0b ec c3 3f
       0.23957392853500337 0.1556409735627582
0006e0 70 dc f9 52 a3 ce bc 3f 3c c6 31 a7 55 55 e6 bf
       0.1125280454233335 -0.6979168191448433
0006f0 12 13 71 c1 66 2c e1 bf ca 7c 6a 2f a1 c8 e4 bf
       -0.5366700914533757 -0.6494909216015909
000700 3c a4 11 3e 32 e5 ef 3f 70 c6 23 82 05 78 ea bf
       0.9967280590327685 -0.8271510640899589
000710 02 06 c2 8b 02 1c eb bf d6 ff b2 e7 4b ba e4 3f
       -0.8471691827436987 0.6477412724852865
000720 fc a8 3c ba fe 83 eb bf a6 ef 10 eb 9d f1 ef bf
       -0.8598626744690416 -0.9982442465911745
000730 40 de 17 c8 9c 9d d9 3f 0e ff 32 d6 dd 72 e7 3f
       0.40024489918093664 0.7327717956140718
000740 42 25 f9 2c 75 3a e4 3f 40 ab 2d d5 ce 72 c0 bf
       0.6321359518416687 -0.12850366028882299
000750 8c 9f f6 b0 2d 47 e2 bf ec 9f 55 60 61 ef da bf
       -0.5711887794795856 -0.42086061866439084
000760 4c 48 0e 12 58 fa d0 3f 1e c5 a1 10 98 b2 ef bf
       0.2652797867132264 -0.9905510258524008
000770 70 03 dc 2c c9 90 e5 bf f4 3a 0e 97 9b 6f d5 bf
       -0.6739240528259938 -0.334936997904989
000780 bc ee 2c 92 eb 02 e6 bf 00 b4 d9 d0 ac 14 60 bf
       -0.6878564696302969 -0.001962983637716409
000790 2c 6d d8 49 f2 00 e2 bf e8 ce 92 60 97 c4 c9 3f
       -0.5626155321400907 0.20131199088574836
0007a0 30 57 fa 1d 60 4b c9 3f bc 19 46 a9 f3 a7 d0 3f
       0.19761277641071606 0.260250964457011
0007b0 2c 55 2b ba 3c e7 d9 3f ac 28 67 74 04 52 de bf
       0.4047385995921384 -0.47375594489552486
0007c0 04 bf 1f fa 6c 6a d0 3f 6c eb 22 26 23 ba e0 3f
       0.25649570871517846 0.5227218384601264
0007d0 30 2f 3d 96 74 00 dc bf 60 45 ad d6 2a 42 c0 bf
       -0.43752779647614926 -0.12701926691310472
0007e0 e0 a4 34 22 77 14 b4 3f 78 00 ff 98 c2 ac c6 3f
       0.07843727669809963 0.17714722128403415
0007f0 b4 23 c4 4b c2 6e d9 3f ec bf bc 38 0e d8 ea bf
       0.39738519095459 -0.838873968901678
