model/Generation/0/w2.npy (npy, 560 bytes, 1 tensors)

array f8 [9, 6]
0	0x3fe7f491494957da	0.7486044341446771
1	0x3fc9929b05425f48	0.19978654629516712
2	0xbfc9ed9272f8e060	-0.20256262410998982
3	0xbfcd2a23c97c3eb8	-0.22784850443030336
4	0xbfa4f16963a65400	-0.04090432492663609
5	0xbfce686f8a878978	-0.23756212486393813
6	0x3fe85979ca0cd7aa	0.7609223314564038
7	0x3fe1f1166118c5e4	0.5606796165868073
8	0x3feeb10d8ff04416	0.9591129123019779
9	0xbfd91cba5f9014a0	-0.3923784192305195
10	0x3fefce0cfd7a0f0c	0.9939026785582157
11	0x3fd42200582676a0	0.3145752774088155
12	0x3fe9bfbd22751d6c	0.8046556160924587
13	0xbfde74f4e4e707ac	-0.4758884654403299
14	0x3fea0aef87e0582c	0.8138349202952262
15	0x3fd379734e9c1080	0.3042877452537667
16	0xbfe821e3a23c1750	-0.7541368645331463
17	0x3fd6242d660a0714	0.34595808949244256
18	0xbfdfa5be8b808124	-0.49449123023261365
19	0xbfd737745b3c9be0	-0.3627596751197739
20	0xbfaec7b050464840	-0.06011725406564539
21	0xbfea9e3e95e3fce2	-0.8318169524717656
22	0x3fc551af07e0e908	0.1665552891225348
23	0x3fe6f10ea13946d4	0.7169259213353265
24	0xbfcb7293b478e500	-0.21443411171075155
25	0xbfcd1118705bc198	-0.227084212172042
26	0x3fc176f9896f3300	0.1364433213297147
27	0xbfd9f3fde09cf5c8	-0.40551707205653686
28	0xbfe0eb0ae35b0e58	-0.5286917152920507
29	0x3fc8c1cc8a165640	0.19341427557508162
30	0xbfd3cac0fa5a2e94	-0.30925011108841116
31	0xbf7c13347d260500	-0.0068542528482578025
32	0x3fb7f3036802dda0	0.09355183877311513
33	0xbfd32f4e74167438	-0.2997623571080257
34	0x3fda8ead89d821c0	0.41495836697916033
35	0xbfcc0a63c564c0c0	-0.21906706941945764
36	0x3fc95ad219e6e0a8	0.1980841280435517
37	0xbfea39bba074ef3a	-0.8195474752351182
38	0xbfe2b4388d2c675a	-0.584499622086905
39	0xbfeba19817ec2884	-0.8634758441196628
40	0xbfe0d730cc44f76c	-0.5262683858525015
41	0xbfdf6ee2cdacac60	-0.4911429413356867
42	0xbfd5a5bec21a7040	-0.3382412810840414
43	0xbfef02c1c886b984	-0.969086543705814
44	0x3febe6e947dc6f14	0.8719374087845346
45	0xbfb292a2cf610660	-0.07254998743976548
46	0x3fb2d61cb3e5d750	0.07357959167515316
47	0x3fc78ec239c58cc8	0.18404414959795745
48	0x3fd2f22aaafefbb0	0.29603068064528326
49	0x3fc0c107d8a2b708	0.1308908279219667
50	0xbfe8011bbba23f9a	-0.7501352944109272
51	0xbfb12be7d45e9e20	-0.06707619604878134
52	0xbfea28d7617674ca	-0.8174855140274755
53	0xbfb02f794bfa6810	-0.06322439293799698
