model/Generation/9/w1.npy (npy, 5888 bytes, 1 tensors)

array f8 [80, 9]
0	0x3fe0b735110cff38	0.5223641713164175
1	0xbfe4fc930a53981c	-0.655831833046935
2	0xbfe2141781df941e	-0.5649526154126112
3	0xbfd8ec0e2c854100	-0.3894076761980756
4	0x3fe10baa3fb83394	0.5326739544412811
5	0x3fc92ae92db13d40	0.1966220353228696
6	0xbfdc170c8c1b25ac	-0.43890680010062044
7	0x3fe20155276292a6	0.5626626748313199
8	0xbfed8bbebd48df2c	-0.9233087250677037
9	0xbfdd9ada3c950434	-0.4625764457342172
10	0x3fd493abca3afc9c	0.321513125887529
11	0x3fdbd242288d52b8	0.4347081562057542
12	0x3fe30d6ef6f21af8	0.5953898261221573
13	0xbfea37b6fc67ee4e	-0.8193011216930672
14	0xbfd618f33c675c2c	-0.3452728357200978
15	0x3fedafd5e2ac852a	0.9277142932152505
16	0xbfdffaa41ad22390	-0.4996729146883405
17	0xbfe5545630c798e0	-0.6665450051048332
18	0x3fee783f4e04d886	0.9521786235625462
19	0x3fe86252923ff3d4	0.7620022636834798
20	0xbfea182ae3d8dbb0	-0.8154501390589441
21	0x3fe370745f35c622	0.6074773654528978
22	0x3fefb63c8ff2eebe	0.9909956752303157
23	0xbfd89c320c007528	-0.38453341648149086
24	0x3fee6751799ec7ae	0.950112092532654
25	0x3fe8e9a4479427de	0.7785207174322257
26	0x3fe1a45a339cce8a	0.5513125427300605
27	0xbfbd8c74e493ead0	-0.11542444782746064
28	0xbfed0d58a6f3ef4c	-0.9078791867063756
29	0xbfe7c41ce8d40f3e	-0.7426895663670405
30	0xbfe5d1142872de4a	-0.681772307397247
31	0x3fc23e9ebb360bc8	0.1425360120884689
32	0xbfec1e8f6caf53dc	-0.8787304995299752
33	0xbfd59c1fdebbe514	-0.33765408278812115
34	0x3fb9c3ffde681790	0.10064696483467928
35	0x3fd3d217638880f4	0.3096979591373519
36	0xbfd2f3e0db3cad08	-0.29613515291085024
37	0xbfed34e9b6b4d7e0	-0.9127090996250864
38	0xbfe6b7b70f57c7e0	-0.7099261569658175
39	0x3fb72b72c13e8d60	0.09050671785239706
40	0x3fe4780576d1fe54	0.6396510430058222
41	0x3fed7c361840fee6	0.9214125131329325
42	0xbfe460d24791a15c	-0.6368190191106282
43	0xbfdd5e25b9ff3360	-0.45887129939801774
44	0x3fe3d6952772398e	0.6199441690858281
45	0x3fbe921f268c03a0	0.11941713992201963
46	0x3fca20999c214cd0	0.20411987422503453
47	0xbfe65e1145dc7800	-0.698982845733326
48	0x3f8ee3495653d500	0.01508195204449203
49	0xbfc2aba1d2db40e0	-0.14586279674268265
50	0xbfd91bc455297fb4	-0.39231975857364465
51	0xbfe637805d2d9cde	-0.6942750759016254
52	0x3fe484ef58da5b50	0.6412274108323377
53	0xbfaf56f4364ec2a0	-0.06121028101859349
54	0xbfe14cdf64ea19e2	-0.5406338664041039
55	0xbfe540620699d762	-0.6641092423367179
56	0x3fe4c8c7c8750e68	0.6495093264752088
57	0xbfea96ef6f759adc	-0.8309247185651105
58	0xbfc30f612d08a610	-0.14890684794345121
59	0xbfeb9172a1700372	-0.8615048554494094
60	0xbfd5ba738492d774	-0.3395050806678832
61	0xbfe338b4366d07ec	-0.6006718695646192
62	0xbfd24b903ac84548	-0.28586202373943026
63	0x3f74f94668fef400	0.00512053970299764
64	0xbf7ced80a7b3b700	-0.007062437590531934
65	0x3fe4be49cec101ca	0.6482285535967602
66	0x3fe28042e17c6ad0	0.5781568912528545
67	0xbfee47b55106f04a	-0.946253450637877
68	0xbfe5905d3a00edfa	-0.6738725788958952
69	0xbfdadaa8059c2084	-0.4195957236083887
70	0x3fdf1c9014f9242c	0.4861183361832129
71	0x3feb919cb9b5ba24	0.8615249278207711
72	0x3fc8b8465161b880	0.19312361692158575
73	0x3fd1c7f92a9ff8f0	0.27783040201747067
74	0x3fe249395b394f9e	0.5714384824482186
75	0x3fd49105651dee24	0.3213513839216111
76	0x3fd536f6ec90e728	0.33147976972724047
77	0x3fcc12d1af522830	0.21932431278793407
78	0x3fde02bc080ed444	0.46891690050989987
79	0xbfbb22f741b8c330	-0.10600228647741683
80	0xbfe427985e32b6bc	-0.6298333968931824
81	0xbfca34ee3d022620	-0.20474031428266048
82	0xbfee5c3f103c90d0	-0.9487605397339625
83	0xbfd41725cb816ed4	-0.31391281961053363
84	0x3fa5eeef6818cda0	0.04283855577196083
85	0xbfe6308d0cfe9b24	-0.693426633243551
86	0xbfe484d9eed18b80	-0.6412171997475156
87	0xbf69367fa5a62000	-0.003077744780231484
88	0xbfe70fa4815a8cd2	-0.7206594969215081
89	0x3fb642b817447de0	0.08695555275016131
90	0x3fb47b8ecbe53120	0.08001034238731508
91	0x3fd5cefc3cbdcaf4	0.3407583802392502
92	0xbfedf902a57e87e4	-0.9366467697438989
93	0x3fcc2d9e2161b258	0.22014214162790569
94	0x3fbefbf403a81a80	0.12103200043939388
95	0xbfe07197c7ff061e	-0.5138663202453164
96	0x3fe37523b98b9bfe	0.6080492614681814
97	0xbfec679c2b8ac544	-0.8876477098876099
98	0x3fe13946a31714fe	0.5382416901926772
99	0xbfd972cdf7eda684	-0.39763211452245906
100	0x3fb722f36fe507b0	0.09037705880930846
101	0xbfd6adcfe19dfb68	-0.3543586447994387
102	0x3fd28a65184c518c	0.2896969544683763
103	0xbfe02057f8fcb2c4	-0.5039481986073828
104	0x3fe5b73249ad12f8	0.6786128462777858
105	0xbfeabfd1ec322ea0	-0.8359155286029427
106	0xbf3f97b5264f8000	-0.00048206493948832474
107	0xbfdadd6bc6ae3328	-0.4197644653548189
108	0x3fc99748e85137a8	0.19992934554687491
109	0x3fcb5641d46b7378	0.21356985923821603
110	0x3feea80d33e4d8aa	0.9580141080430356
111	0x3fe0e61eb959c6e6	0.528090822232312
112	0x3fe037359cbad50e	0.5067394314889115
113	0x3fe0228e73d9de86	0.5042183172908643
114	0x3fa003c3a7b02480	0.031278719157918466
115	0x3fe23eb11744e8ba	0.57015280289422
116	0x3fec28197da5b4ca	0.8798949674652701
117	0xbfe13ea3f76f94a6	-0.5388965447169951
118	0x3fea2792ffe62950	0.8173308370617551
119	0xbfed1de2fe09376c	-0.9098982774391806
120	0x3fec6876c814b3c0	0.8877519519643258
121	0xbfe32e300159601a	-0.5993881250715305
122	0x3fe980669d2a0790	0.7969239301312303
123	0xbfde158dd17bce64	-0.4700655503977258
124	0xbfdcd35ed3ed80c0	-0.4504010266882794
125	0x3fef5a7139408624	0.9797903173641243
126	0x3fded229e2c7e9b8	0.48157736918042415
127	0x3fedad7038f79c3a	0.9274216759339489
128	0x3fec39cb79fc20c6	0.8820550329701511
129	0x3fea8674e5117658	0.8289131616581455
130	0xbfd377f27af4790c	-0.3041959954006337
131	0x3fe6b64f966942c6	0.7097547471731438
132	0x3fe928f093436b86	0.7862475277173508
133	0xbfe0ceb8eed963ac	-0.5252346673033705
134	0x3fe0239b2e3b7328	0.5043464568112528
135	0x3fe82a1d53112802	0.7551409361269636
136	0xbfb3e84427c9d470	-0.077762851442303
137	0x3fce04ec6e72ea60	0.23452525513660571
138	0x3fdc594d0e2b1a88	0.442950500332167
139	0x3fe0e2c421c2d530	0.5276814135928927
140	0xbfe3d483ab2ff4ec	-0.6196916907789762
141	0x3fd34dd830047fb0	0.301626250164186
142	0x3fe98fb236927c14	0.7987910333503145
143	0xbfc02812c075a3a8	-0.12622293851316368
144	0x3fed473219b23228	0.9149408819080849
145	0xbfbf53b154d41520	-0.12237079926497474
146	0xbfd02fa8fc579078	-0.25290894167688505
147	0xbfb9e6e02d226f00	-0.10117913343350082
148	0x3fd11b6e03498cb4	0.26729917832399086
149	0x3fe996f61d859cf0	0.7996779038047901
150	0x3fc735f14e1a6290	0.1813336974489812
151	0x3fdb5a74ee75e4e0	0.42739604270134457
152	0x3fe3c31196b6b584	0.6175620978953451
153	0xbfe071aa97623b60	-0.5138752896035435
154	0x3fedd4e15b614f38	0.9322363648193237
155	0x3fd3fc3c9c50e07c	0.31227031007029615
156	0xbfe3f223be525168	-0.6233080594270577
157	0xbfed6adb18fcea34	-0.9192939270063278
158	0x3fd2a52ee2f4e68c	0.29133197940573363
159	0xbfd1b593f4b49f34	-0.27670763871218473
160	0x3fce7fdda16c00d0	0.2382771528427896
161	0x3fcffa0d5a23cbf8	0.24981848622664393
162	0xbfe2dc42ac91ec58	-0.5893872614391382
163	0xbfef43bfdc74d11c	-0.977020197466604
164	0xbfe56fb4df231dda	-0.6698860510013518
165	0xbf94701f21b78180	-0.01995895999232422
166	0x3fde26b6c933ed5c	0.471112915503644
167	0x3fe72194782d6f56	0.7228491160599144
168	0x3fdf28e8cae4ac1c	0.4868719083194166
169	0xbfe3a34e75652f6e	-0.6136848729015421
170	0x3faefe503500b560	0.06053400656706276
171	0x3fba63d0fa36a3f0	0.10308557614065683
172	0xbfed8571eeec378c	-0.9225396791896272
173	0xbfedd5d7a49d3460	-0.9323538031691321
174	0x3fcab8d9898f22d8	0.20876616684679195
175	0x3fefd7d021f9a5fc	0.9950943626001272
176	0x3fe8c1233b21c1e4	0.7735763697547182
177	0xbf57fc911216d400	-0.0014640251832649387
178	0x3fe36e47612f62ea	0.6072117708345932
179	0x3fd38f9d0fa1d744	0.30564047361928126
180	0x3fe4f82c9013f64a	0.6552946867011056
181	0x3fe64b441170689a	0.6966877308471056
182	0xbfeea11c08d61ea0	-0.9571666882120162
183	0x3fe416be2a9eace8	0.6277762253206705
184	0xbfee78306eedb274	-0.9521715323040341
185	0xbfdf056515cba2c8	-0.4847042763563363
186	0x3fbef334a5058fc0	0.1208985236058302
187	0x3fec681938ed646c	0.8877073394643396
188	0xbfe598350ff6ee7e	-0.6748299896057259
189	0xbfde962d74833334	-0.4779161107842811
190	0x3fedb939f6ed9ac0	0.9288606474700245
191	0x3fe915a40a84707a	0.78389169744652
192	0xbfdc835ae9b5f524	-0.44551728080098685
193	0x3feebc7fe06c7eae	0.9605101950910091
194	0x3fedf30f23b41c54	0.9359203049979308
195	0x3fc2ac3d3ce2ba48	0.14588132355625505
196	0xbfdbda56d4574dd8	-0.43520136581829894
197	0xbfe9ca733e20dfdc	-0.8059631551213857
198	0x3fb40c99f210d380	0.07831728133971971
199	0xbfdb9ffbd0b67270	-0.4316396272859384
200	0x3fe208b7535f8668	0.5635639789945346
201	0xbfe3adec4f171d2c	-0.6149808449489789
202	0x3fe1949e239dc58e	0.5493918128615165
203	0xbfe7731857f01be2	-0.7327996938264472
204	0xbfd9e6e6723fda58	-0.4047180286137624
205	0xbfec74e75d684e92	-0.8892704796184765
206	0x3feb3b41e0812f8e	0.8509835610252467
207	0x3fc8c9b703f5dc50	0.19365585034731447
208	0x3fec4dbfe163c4fa	0.8844909097807936
209	0xbfe0382442b432f6	-0.5068532278833959
210	0x3fe7872af1f15bd0	0.7352499700017407
211	0x3fe9e08b7aacd68e	0.8086602588652612
212	0x3fd2d6103227c804	0.2943153848456179
213	0xbfcb2ecf7084ae60	-0.2123660373120968
214	0xbfd9582876f0fd24	-0.3960057412659401
215	0x3fd76917ca3298a0	0.3657893633447973
216	0x3fe15b2f3c12382c	0.5423809216752082
217	0xbfef0c71ab43e54e	-0.9702690453552039
218	0xbf96c0405ef3a300	-0.02221775607623311
219	0x3fcb288d0b5ce328	0.2121750169260619
220	0x3f8440b050e7e180	0.009889008969353297
221	0x3fcc53eed847b608	0.2213114315085678
222	0x3feb21efcb0924d2	0.847892662576806
223	0xbfe01cb4a3fcc84e	-0.5035041048888702
224	0xbfe0fb41d0534ae8	-0.5306710308890077
225	0xbf93479739538140	-0.01882778441802313
226	0xbfd1ee4efad1765c	-0.28017019742933313
227	0xbfe24ff9f80bc162	-0.5722627491614214
228	0x3fde823fb1d51720	0.4766997563022972
229	0x3fe910b7700b98d6	0.7832905949005873
230	0xbfee19678cbcc23a	-0.9406011341835161
231	0x3fd4b3a06ea4d124	0.32346354298649005
232	0xbfda2088656c2f28	-0.4082356443839097
233	0x3fe3df3ae7d3e524	0.6209997680554449
234	0xbfe578ccf0947828	-0.670996160395366
235	0xbfe74b986c4854b8	-0.7279779543774998
236	0x3fe4b5aac346a076	0.6471761526090762
237	0xbfc70cc9c2638900	-0.18007776252404284
238	0x3fe8144b4206ffe4	0.7524772920223737
239	0x3fbab7fc99b1f960	0.1043699145538759
240	0x3fdb290117e93598	0.424377702093659
241	0x3fe87ec84805bb7e	0.7654763609588
242	0x3fe53a2b859a5a5e	0.6633508309776734
243	0x3fe2cf88768f4faa	0.5878336253758694
244	0x3fc6e5077b9061f8	0.17886441739462078
245	0xbfe1cf11a2b9ef0c	-0.5565269640205499
246	0x3fc88bef20ff3750	0.19177044974497415
247	0x3fd5ddbe538888f4	0.34165914685776433
248	0xbfd3a51039320348	-0.30694966874584795
249	0xbfe182a30caf8bbe	-0.5471968887107932
250	0x3fefedd46041afc8	0.9977819328319066
251	0x3fa3a1cb6db10da0	0.038343770160760515
252	0x3fe347e86edb3512	0.6025278248941126
253	0x3fda9ca59c9ee5a8	0.41581096930493766
254	0x3fdcf8837bf7c0a8	0.45266806703785756
255	0xbfe742a64b793e40	-0.726885936173808
