model/Generation/9/w2.npy (npy, 560 bytes, 1 tensors)

array f8 [9, 6]
0	0x3fce4a4e26f1b498	0.23664261724062352
1	0x3fe8bb9bb79805c4	0.7729014001671932
2	0xbfe705fc78ed158a	-0.7194807397687992
3	0xbfe9c623bd019412	-0.8054369632269547
4	0xbfeb68fd054b98e6	-0.8565659621642936
5	0xbfe98d3faac040e4	-0.7984922728519703
6	0x3fdd71905d0e9278	0.4600563915976532
7	0x3fdaffbe2fb38c18	0.42185930879912936
8	0x3fe8a556094fa246	0.7701826269013246
9	0xbfa8b2b6744854a0	-0.048238469786306526
10	0xbfcdfd16fa9a04e0	-0.23428618656547595
11	0xbfb491e190f17dd0	-0.08035096920638485
12	0xbfbaaeb4aaa77100	-0.10422829786643106
13	0x3fc07a5fbb971778	0.1287345567672522
14	0x3fe741a829ae97ca	0.72676475659386
15	0xbfb177dadcdf17e0	-0.06823509113664228
16	0x3fe00094a4129ac6	0.5000708775085847
17	0x3fd0980c1c8e3e90	0.25928023136746337
18	0xbfe37948c4dfbda8	-0.6085552067942688
19	0x3fd0b48d52ac6828	0.26102002214031694
20	0x3fcf3b1339ac8c28	0.2439903289424319
21	0x3fcaa65579994130	0.20820110738214614
22	0x3fcf4d2061c11f10	0.24454121373332116
23	0x3fc1303153acc518	0.13428322396934145
24	0x3fb66eae5344d970	0.08762635739262747
25	0xbf6a08469573a200	-0.003177774294830238
26	0x3f9ee68bb2abe440	0.030176337032546963
27	0x3fe96f8205eb03f4	0.7948618045412545
28	0x3fe718884916ffe8	0.7217446734939559
29	0x3fe33791fcf81742	0.6005334797671156
30	0x3fee7bdba19055ea	0.9526193767111952
31	0xbfedfc7fe15a2f1e	-0.9370726968204257
32	0xbfe8b0686e7ba656	-0.7715341718550899
33	0xbfcad4b669ea9120	-0.2096164719743081
34	0x3fe22a8b75f13334	0.5676934531744338
35	0xbfe87a40c1f6bcaa	-0.7649234569888865
36	0x3fd624e24a0d1984	0.3460012171894038
37	0x3fd95414c454b164	0.39575690434391775
38	0xbfbb754cf022ba90	-0.10725861418425553
39	0xbfd19c2883081758	-0.2751561431508569
40	0x3fe122d1247512bc	0.5355001174981093
41	0xbfe4bb7e2343fe3e	-0.647887295606729
42	0xbfb81e0ad4094d50	-0.09420840908687933
43	0x3fd141421eabe208	0.2696080493474544
44	0x3fedebd7565d98dc	0.9350392042950051
45	0xbfaa4d0cf85aaf00	-0.05136909991901284
46	0x3fd4c10e468b9f00	0.3242831887168762
47	0xbfc67822c6b7e380	-0.17554125502627116
48	0x3fe81431f1d990a6	0.7524652217512269
49	0x3fe10759c8e7342c	0.532147304905839
50	0xbfecf79a52838412	-0.9052249538036696
51	0x3fe2c0e29002b7ba	0.5860455334384291
52	0xbfb69a0c5c39e2f0	-0.08828809024442896
53	0x3fd331ac714a6e88	0.2999068361620876
