model/Generation/3/w1.npy (npy, 5888 bytes, 1 tensors)

array f8 [80, 9]
00000000: 8a8c 3593 a3b2 e93f 00ea 0904 8539 cebf
00000010: 7e79 6351 872f ebbf e84c 5f76 7559 c0bf
00000020: 6407 5c47 5783 d0bf 94ea d71a 39cd d8bf
00000030: 587d 8750 b123 e1bf c800 1d92 d633 e73f
00000040: 90c1 0ad4 68a3 b63f b863 25ba cf5e d93f
00000050: e4e7 5754 9e3e d03f ea76 2a8c 8316 e83f
00000060: 307d 7859 7930 ef3f a81b 3a8a f768 dbbf
00000070: 68df 8943 84bd e83f 785b 5629 2941 e03f
00000080: 7a6a 0e52 84a3 e0bf 7473 d764 c97c e0bf
00000090: 724d 1345 8b8c ebbf dcd8 1f48 7956 d7bf
000000a0: 9817 d06e 33cc c73f 307d 0d38 c993 bcbf
000000b0: 20a1 ac5a bda1 d63f 2c43 9fb9 b782 d33f
000000c0: 28f1 6f16 1670 c23f 38a2 e7e8 8cff e1bf
000000d0: e02b c8d6 b8f9 ce3f 8868 5324 caa1 ce3f
000000e0: c057 4c50 fe2f ed3f f094 66d5 c586 c83f
000000f0: 88f2 dffe ceee cebf 64ec fe4c a330 d4bf
00000100: e4b7 852b 0dc7 e1bf 04e3 01ee 2569 e2bf
00000110: c4f7 eabd e5b8 e5bf 7c10 85cf de42 e63f
00000120: b020 78bc 7ce7 d93f 720d fe01 01bf efbf
00000130: 44e5 8e1f 92b2 d0bf f44e fca1 40b1 d3bf
00000140: 8092 2c3e 904f dcbf 5c52 5df8 30e9 d4bf
00000150: 6cea 0ecb f4af e03f 702a cc54 bfe0 b33f
00000160: fab0 4bbb 6e70 e1bf 60c9 9bf2 d830 d4bf
00000170: 606b b22a 2904 e1bf cccd 4618 f7e6 e83f
00000180: 08ad ec63 0d24 df3f f489 5470 4e21 ecbf
00000190: 28ee 444b 5654 d4bf d0f6 ed49 4e06 c4bf
000001a0: a0a7 1af1 21ad a43f a009 5bec 8ef3 dcbf
000001b0: d2c0 1b90 67c4 edbf 4e86 c287 cc57 e33f
000001c0: f447 ab50 b5c6 debf 5a80 0613 7a97 e5bf
000001d0: 744d 590b 06f1 e4bf 3062 ef72 3772 bbbf
000001e0: a0a7 514e 50d4 df3f 8889 02fc 334f c43f
000001f0: 38e6 e05a b154 d5bf 0020 22af 22f6 c1bf
00000200: aa18 5ba4 3509 ec3f a0dd 3eec 5edb a93f
00000210: 9e5e f32c f807 e93f 542b 1d30 51ba ee3f
00000220: 90e9 500a ef33 d5bf 423e e092 a173 edbf
00000230: 7077 6e90 4d67 c33f 12e7 cc38 4715 e73f
00000240: 20ea 48c1 e961 d0bf 4038 1e91 7a3b b23f
00000250: 8026 ef5a 4f6f bfbf fefd c739 ff31 ea3f
00000260: 58f5 ab15 bdd5 d3bf 94d0 c714 511b d1bf
00000270: a848 7431 9b8b d93f f45e 9963 17aa ef3f
00000280: 78a8 2d27 915b eb3f cad9 1655 ad3d e1bf
00000290: c831 2e9e 44fb d7bf 32d1 c674 814a e83f
000002a0: d086 c0b6 21a1 bf3f 9e9c 774f 428e e73f
000002b0: 0e99 577b c744 e83f 5e89 5809 31c0 e6bf
000002c0: d030 cc34 2762 cd3f ee75 1ed6 23c7 e33f
000002d0: 3675 bc98 d880 ec3f 80fe d89d d64d 99bf
000002e0: 50b2 c5a5 c7f7 e1bf 2a8f 8969 c768 e63f
000002f0: 16f2 1cd4 bfd6 e0bf 7046 95e9 6a50 e9bf
00000300: 14e1 b833 3eb6 dfbf b0eb 6b7b b357 dd3f
00000310: 1893 2621 979f e43f 90e8 0d24 47ac d73f
00000320: ee5e ff07 2778 e73f 0866 fbf0 ba67 e13f
00000330: 10b1 b371 6b67 b43f 48b4 170e b615 c2bf
00000340: 4ac4 24d9 4350 e9bf 3241 fa6e f6a4 ebbf
00000350: f45f 71a6 9c56 e03f 8caf de61 bd8b e03f
00000360: acca e0a7 960a e43f d4a4 431d 5b24 eebf
00000370: 1c80 f0ab e0ba d1bf 48b2 c644 a954 dd3f
00000380: 08b4 ccc0 56c5 ee3f 8aee 5018 91c1 ee3f
00000390: 3c6b 4575 7606 db3f c08c 5614 0f72 9a3f
000003a0: ea91 1930 2b51 e53f 40d6 09fa c7fc d9bf
000003b0: b610 9913 2b81 e23f fc7b 2b6d 2200 e4bf
000003c0: a2ff 4b95 873f e43f 28e7 e239 e275 e8bf
000003d0: 32ba 9046 332b ee3f b032 c8a0 d66c d13f
000003e0: 183b 251d 8fed e0bf eac7 8267 a059 e1bf
000003f0: 5c92 6c68 4722 e7bf 209d 63b6 224c ed3f
00000400: e8ee 3d9d 0df7 c2bf 8092 b092 54b7 c8bf
00000410: cc69 7c7d 4f75 eb3f 9012 2cd5 385e c23f
00000420: 20fa b5b3 b692 cc3f c0dc 66c5 10ed ebbf
00000430: f20b b813 b241 e83f 2ca9 b48c 2c91 e63f
00000440: 948f f34c 3f10 db3f 324d cbc1 458f ea3f
00000450: 8076 07f3 c918 e23f 30be 35de 98de e23f
00000460: b4fb f287 94c5 dcbf aada ca2e 44c9 e5bf
00000470: 2019 def5 9a06 d73f 5280 df0c aa20 e5bf
00000480: 1817 adf8 cf27 c8bf 1647 c7e3 d85b e5bf
00000490: f620 8aa2 679f ef3f acef 4191 3ed7 d03f
000004a0: c414 f935 848b d4bf a062 5c24 f33c cfbf
000004b0: fc88 de13 8994 d23f c6f8 3fc5 d9a7 e43f
000004c0: 406f ea6e 88cd e33f dc7d 84fe 8fe5 ed3f
000004d0: 5001 43fa 61ff bd3f 8017 a3b6 c808 b1bf
000004e0: c8ad 82af ea74 d5bf eab1 1b2b c2c9 e63f
000004f0: 2002 24ad 44cb a83f f614 9393 c867 e2bf
00000500: 5266 2804 0027 e1bf 4219 0984 2a8f e0bf
00000510: 20ea c414 6346 b33f 844f eecd c444 d73f
00000520: fa53 23c9 687c e6bf 6443 1f5c 900e e6bf
00000530: aa64 7a51 4877 eebf cce1 c8ee 0030 eb3f
00000540: b200 eb0d 47dd e9bf 4850 4aba adc2 e1bf
00000550: 08a1 8320 db58 eebf 1085 e9ee 0d1d d6bf
00000560: 0ab2 cda9 99db ed3f 2064 fe6c 472f aabf
00000570: 3847 045d 9c64 c7bf 809d c436 d14e ef3f
00000580: 3422 7376 fa53 e8bf 80ff 102c 68f9 abbf
00000590: d63e e940 677a e2bf a029 2bca 4d84 dabf
000005a0: e40f 7de5 b01a e2bf 4803 4f6a 40f9 debf
000005b0: 0635 f580 1877 e73f 84ed e1e0 fac5 d93f
000005c0: 06d8 745b 0e26 e3bf 76be f252 94e4 eebf
000005d0: dcbf 41e8 ae7d d13f d803 6b75 22da e6bf
000005e0: d005 b735 ca14 d93f 08bd 665d fcde cc3f
000005f0: 847b 305e 9fca eb3f be91 a9ed 5e5a e4bf
00000600: d04b 109b ba89 ba3f 2284 b53c 0506 e43f
00000610: ac30 f632 644d d2bf c035 c3b7 3305 bfbf
00000620: 0ab5 1ea1 f2bf eb3f b4b1 5210 2f25 e23f
00000630: b0b3 9f18 b3f2 c7bf 00d2 c3b6 8204 d6bf
00000640: fc0e 69ec 18f4 d33f b22b efc1 d87a e63f
00000650: 4cb0 3338 6316 d7bf 3001 129d 9b43 e03f
00000660: 3640 a6b7 930c e6bf 38a4 3bb3 fb6b cdbf
00000670: 528a cfc3 52a4 eabf 0084 a65d dbaa 8a3f
00000680: 30b2 5998 3f99 d03f 304e 061d b86e c6bf
00000690: 620a 3fb3 a1be e73f 005d 3f53 14af e33f
000006a0: 70bc f49a 38c9 c6bf fc69 d077 5ebe e5bf
000006b0: d423 f5c6 00ae e53f fe78 2d80 1e9c e53f
000006c0: a431 516e 5a0b e53f 282e 85c0 5d6c dcbf
000006d0: 9c35 823d 9349 e7bf dcbd 2344 2622 d7bf
000006e0: 10b8 4160 184f bbbf ce75 61cc deae ebbf
000006f0: 542b a1bb a47b efbf 0070 4ef4 3e12 e23f
00000700: 242c 3675 f5a4 ef3f 50b3 6fbe 3529 d6bf
00000710: 40a6 e95b 0f59 e0bf 60a4 63c7 15e5 abbf
00000720: 5c0c d086 76bd e03f b4f0 7cfe fe58 ea3f
00000730: fabe f2af f84e e23f e036 7f40 8f6e a0bf
00000740: 5e4c bec0 3655 ea3f fcb0 5fbc cc8c eabf
00000750: 70b6 dc5e 96d0 d4bf 944d a3d6 2bc5 efbf
00000760: c81c 45c0 34ae e93f d867 7a9d 00e2 c43f
00000770: 4086 4bca bd2b 99bf 9a9e ccab 8361 eb3f
00000780: f0d4 10a8 638a d23f 20ac edd1 54a0 d2bf
00000790: 4ece 621b 9179 e03f e2e1 2b8c a610 efbf
000007a0: 0477 10d1 ca38 de3f 6443 5ea9 bf6f d93f
000007b0: c0e5 971f 4f7e a1bf 40c3 f61f 3843 ed3f
000007c0: a0df 5bf0 25f2 d63f d400 ebbf 3ca2 e0bf
000007d0: 0491 3f18 6c08 e3bf 8a18 4ff0 5153 e5bf
000007e0: c84d f223 71a6 d73f ccbf f526 c9da de3f
000007f0: 44bf 201b 52c1 ecbf 0ea0 4aec ab18 e33f
0.8030565142802442 -0.23613035866931398 -0.8495518293018873 -0.1277300670613848 -0.2580164143438337 -0.38752582189014473 -0.5356070111119307 0.7250779012465722
0.08843093087012321 0.3964118306953952 0.25382192837389383 0.7527482736220155 0.9746672389482338 -0.4282816743729492 0.7731343573677636 0.5079541976327695
-0.5199605562841747 -0.515232750850926 -0.8609062527779499 -0.36465293925665576 0.18591921721252613 -0.11163003557657158 0.353621805714754 0.3048533737865451
0.14404560180253978 -0.5624451207086798 0.24199591147802746 0.23931242727013946 0.9121085708927623 0.19161293907124088 -0.24166285939272236 -0.31546862143631516
-0.5555482721372269 -0.5753354691106272 -0.6788204869587777 0.6956628850098379 0.4047538605232246 -0.9920659102357787 -0.2608990963158997 -0.30769363230613966
-0.4423561675232932 -0.3267328668055478 0.5214790311795929 0.07764812298061385 -0.544974675952772 -0.3154814118598974 -0.5317579111027548 0.7781939958717259
0.4865754581284851 -0.8790657228421979 -0.3176475272227628 -0.15644243821946313 0.0403833967987588 -0.4523656185303029 -0.9302251639001275 0.6044676448402215
-0.48087818982924024 -0.6747408267583623 -0.6544218274743074 -0.10721155696899909 0.4973335995515473 0.1586670856969017 -0.33329423785071155 -0.14032395888739302
0.8761242113185024 0.050501791323252165 0.7822228315298678 0.9602437915540158 -0.33129478461673845 -0.9203651302977465 0.15159005691833327 0.7213474377997235
-0.25597614169569916 0.07122007410927811 -0.1227922055251387 0.8186031464137498 -0.3099205695760552 -0.2672922804770306 0.39914588765635495 0.9895131058974287
0.8549276128008065 -0.5387789403819678 -0.37471118399915015 0.7590949326318308 0.12355242454261917 0.7361156036466985 0.7583959015871942 -0.7109608824287468
0.2295578964043501 0.6180590803157295 0.8907282813194459 -0.024710992225890127 -0.5614965665568636 0.7002903996730983 -0.5262145178635957 -0.7910666048212089
-0.49549822855944226 0.4584778504646989 0.6444812438463456 0.36989000817232753 0.7334170490457532 0.5439123827629269 0.0797030594437198 -0.141287571793699
-0.7910479775511103 -0.8638870399027267 0.5105727434956848 0.5170580779572318 0.6262925413960452 -0.9419379779402797 -0.27703110495531447 0.45829230991765657
0.9615892186753863 0.9611287569927793 0.42226945354711964 0.025825725189531523 0.666158288903316 -0.40605353753867135 0.578267610814257 -0.6250164158080902
0.632755080790947 -0.7643900995819637 0.9427734735707587 0.27226796819085575 -0.5289989060637224 -0.5421907445618193 -0.7229344405682911 0.9155438959395816
-0.14816446473911715 -0.1930947986849283 0.8580701304338674 0.14350042732998647 0.223227346181333 -0.8726886611465474 0.7580194840560337 0.7052214382322624
0.4228666545370683 0.8299893174211432 0.5655259844458698 0.5896725025213012 -0.4495593383434724 -0.6808186448968929 0.35977815638070076 -0.660237336294822
-0.18871497766866052 -0.6674618195340567 0.988208596668328 0.2631374758273022 -0.3210154082374397 -0.24404753947671498 0.2903158849750438 0.6454895832573804
0.618839470512718 0.9342727633519945 0.11717808113008243 -0.06654028376496335 -0.33526103152936715 0.7121287195164403 0.04842581380399147 -0.5751688844981391
-0.536010749932027 -0.5174763277835057 0.07529277092991338 0.36357231245460064 -0.7026866844631734 -0.689277820516605 -0.9520608512276756 0.8496098197711546
-0.8082614204249892 -0.5550144804460695 -0.9483466754000185 -0.3455233414770911 0.9330566708063668 -0.05114196019639672 -0.18275789777595164 0.9783712453544666
-0.7602512658568856 -0.05463719880981355 -0.5774418132586685 -0.4143251871397755 -0.5657581789205293 -0.48396311170295236 0.7332880514819926 0.40270873986420264
-0.5983955179460743 -0.9654027576525113 0.2732960956700461 -0.7141277592964981 0.3918939137039077 0.22555498657809658 0.8684841956745548 -0.6360315934985505
0.10366407666906174 0.6257349191402037 -0.28597359635092334 -0.12117312656774626 0.8671811243890784 0.5670390433129371 -0.18709410383544656 -0.34402530525338193
0.31177352034522676 0.7024959361818814 -0.3607414292189375 0.5082529132633109 -0.6890352808859521 -0.2298578858529099 -0.8325589966228313 0.013021196170315719
0.25935354116407705 -0.17525388161867417 0.7420204640296328 0.61512199649124 -0.17801578108035043 -0.6794884052390553 0.6774906049623675 0.6753075126141821
0.6576358942634681 -0.4441141491012979 -0.7277313424435081 -0.36145931867846826 -0.10667564725892498 -0.8650964729128476 -0.9838431992187489 0.5647272845849329
0.9888865746773985 -0.3462652549485954 -0.5108715815706049 -0.05448215540838741 0.5231278069553684 0.8233637781591114 0.5721400677193451 -0.03209350263896993
0.822902084781514 -0.8296874694038077 -0.3252311636341352 -0.9928187553545507 0.8025153880379543 0.16314704598772667 -0.02458092257700728 0.8556536059813482
0.2896966115252573 -0.29103584767170965 0.5148397002107659 -0.9707825410578688 0.4722163240092956 0.3974455980288012 -0.03416678677235607 0.9144554733557939
0.35852955315157864 -0.5198043583295893 -0.5947781060790764 -0.6664209073576484 0.3695338107147248 0.48210362248118765 -0.8985987214891584 0.5967616667812778
