model/Generation/3/w2.npy (npy, 560 bytes, 1 tensors)

array f8 [9, 6]
000000 24 d2 66 71 10 1c d0 3f 00 37 2e 30 10 9d 86 3f
       0.2517129046857767 0.011041761846878995
000010 3c fe b2 76 41 df d7 3f 10 b9 0c ed e0 d5 b7 3f
       0.3730014475986285 0.09310727870317614
000020 f6 f7 e4 4c 8e d3 e7 3f 1a b3 ac 07 c7 ee e0 3f
       0.744574690040962 0.5291476392645535
000030 bc 32 b3 c9 14 c2 d8 bf ac 68 c9 0c 59 62 ed bf
       -0.3868457765318387 -0.9182553529492643
000040 88 96 bd 58 c1 41 e5 bf 8c 3b 01 8d a6 54 ec bf
       -0.6642767651762407 -0.8853333238601961
000050 08 54 03 b7 b4 44 ee 3f 90 c9 1b 4d d5 e0 b8 bf
       0.9458869528267551 -0.09718068249256917
000060 c8 91 8c a1 c0 b7 c3 bf a6 c6 07 2d f6 e0 e8 3f
       -0.15404518020763036 0.7774611358165273
000070 90 a1 f8 63 e0 4a dd bf 78 55 a2 9d ea 6a c9 3f
       -0.4576951004296683 0.19857533165911057
000080 78 cb d7 26 ea 5f e8 bf 08 b8 09 77 e9 18 d7 3f
       -0.761708331933149 0.3608955061416741
000090 40 91 07 92 ca 3c ef 3f a8 c8 cf 38 39 5e e1 bf
       0.9761708118572088 -0.5427518949129722
0000a0 18 c3 18 5e df 30 d9 3f 50 4c 8d 3e 26 ea e8 bf
       0.3936079424775456 -0.7785826894490899
0000b0 0a 03 cc f5 e7 1b e7 3f c8 39 0c 36 fe 64 cc 3f
       0.7221565056534882 0.22183206213999385
0000c0 80 3f b1 0e 1b 7f 8e bf 2c c3 45 f7 26 e3 eb 3f
       -0.0148908723696477 0.8714785413304518
0000d0 a8 14 b8 d2 24 84 dd 3f 18 a6 f2 64 87 ad d4 bf
       0.46119041994126997 -0.3230913625544374
0000e0 62 9f c7 7d 76 5e e9 3f c0 25 bd 0a 67 a5 cb bf
       0.7927811104427571 -0.21598518394811883
0000f0 dc d5 a9 2e 58 ea e7 3f e6 c2 de 7a a5 bb e4 3f
       0.7473565017123138 0.6479060554321137
000100 1c 65 c4 a1 1b ea ef bf f4 aa 00 7e 8b 8e e9 3f
       -0.9973276290431019 0.7986504994381378
000110 40 06 e1 0a 7f 12 d5 3f d0 75 5f 18 52 34 d9 bf
       0.3292539221039057 -0.3938184011475103
000120 da f7 55 3e ea 04 e1 bf 58 85 10 ed 15 b2 c3 bf
       -0.5318499772545195 -0.15387224269310695
000130 14 4b a4 ba ca 9e d4 3f 48 dd 31 a4 e6 b0 e3 3f
       0.32219188906417284 0.6153443533830023
000140 70 f0 b8 56 a6 60 d5 bf 10 9c 2f 70 e1 da ce bf
       -0.3340240332506772 -0.2410547063620645
000150 dc 94 65 4b ad b9 e0 bf 38 64 66 a6 57 b9 e7 3f
       -0.5226656410783579 0.7413748025893545
000160 80 ec 43 f6 5d 88 dc bf 80 32 33 68 e1 52 e4 bf
       -0.44582318353031525 -0.6351172480732004
000170 ea 1d 34 31 51 f4 ef 3f 70 cf c3 8c 4e 37 da 3f
       0.9985738717086268 0.4096256613404341
000180 f8 ee a6 3c fd 66 c7 3f da 50 ce 5b f6 6e ee 3f
       0.1828304811623338 0.9510452073177718
000190 2a 07 d5 b1 21 84 ef 3f dc de df 00 a5 41 d3 bf
       0.9848793481143947 -0.30088162503623805
0001a0 64 c7 08 79 49 16 e1 bf 78 b0 e0 0c 86 12 e2 3f
       -0.5339705814314866 0.5647611857907711
